scripts/neuralnetwork/checkpoint/kitti2015_2x_downsample/checkpoint.tar (torch, 650115 bytes, 300 tensors)

module.refine_spn.0.0.weight f4 [16, 3, 3, 3]
00000000: 8ee0 9fbe 9566 d8bd ecf7 4f3e 3599 b03b
00000010: 63b7 cb3e 219b 7e3e ed50 1abf 2c75 f4bd
00000020: 5b12 2f3e 5c57 a23e 7708 493e 8a75 dcbe
00000030: c726 123e 6f8c 1b3f 405a 80bd 459e 85be
00000040: f859 b2bd f5b3 edbb 1759 a33d 0dc9 5abe
00000050: d758 9fbe 434e 073c 14fc 603e b4b3 07be
00000060: 8ab2 0dbd a545 f93d a7a2 83bd c08a f83b
00000070: 84f4 653d 16cc e9bc b006 88bc ae24 703e
00000080: 2eea a23e b266 413d 7ee7 07bf 0731 88be
00000090: c29f ecbd c09f 303e 79db 803e e042 823e
000000a0: dc61 0e3e d9de 553e ac45 aebc 4528 acbe
000000b0: 8914 cebe d40f d3bd 0ec5 2c3d 939d ac3d
000000c0: e607 fc3d dd1e b73e 937e cc3e 13a5 8bbd
000000d0: ced2 e8be 244a 20be c9d8 883e 26e2 9a3e
000000e0: 7de0 263d fabf df3d 27c3 f73d 6142 bcbd
000000f0: 4c1e f03b 5e0f cbbe 6679 03bf c800 36be
00000100: ad12 a0be cb7a af3e 2079 e4be 700d 3fbe
00000110: ab02 fb3e c351 b4be 7ed2 e43d beb7 ec3e
00000120: ed37 71be 909b 82bd f501 12bf fd88 eb3e
00000130: e4c2 8f3d 92c5 16bf fffc 133f aae5 ec3e
00000140: 08ba 113e 7c69 63be 1b40 883d 580c 303e
00000150: 93e0 263e 2996 e8be f9cc e93e d7d7 c6bb
00000160: cdf4 d8bc 915d e43d d333 e23c 5ab8 3f3e
00000170: d9d5 d1bd 1b87 653e e800 1abf 5a0e 413e
00000180: 75d1 97bd a790 88be a705 693e db9f 803d
00000190: 8e08 e73d 3dae a0be f607 fd3e d680 bfbe
000001a0: ce03 fdbd 2180 9b3e 13f4 d2bd 3a3d 35be
000001b0: eb14 903d 2c0b 853e 3944 313e 6f89 65bd
000001c0: 06d8 29bc 2bda 683d 6654 afbe 0ee6 66be
000001d0: 7e6e 09be b769 cbbe 07f6 01bf 3b20 a1be
000001e0: 25d6 0b3e a13e 01bc 0fa3 e3be 4acd 2e3f
000001f0: ed9e 1e3f 12e7 e03e b1a3 8b3c a8a4 0c3f
00000200: e87e 443e a0fa 593e 32ee 563c cf36 c93d
00000210: faa0 f5be 46f7 16bf 34b2 2bbc 626a 94be
00000220: 011e 90be 48f9 eabe 5217 18b9 e760 07be
00000230: ab3a e6be 39d8 403f 026d 633f e53f 64bd
00000240: 2bf8 863d de51 723e 664c 113f 1675 a3be
00000250: 1ee8 813d 7877 e53e 39e5 28bf e673 9dbe
00000260: ae2e b23d 5c70 5c3e 369b 4c3d d6e3 b0bd
00000270: 1348 ba3e 12c0 fd3d 8d89 123d d757 44be
00000280: 716f 22bf 3c9f 07bd 3183 213e 91b2 41bc
00000290: 3b6a 8d3d 6501 20be ab51 233e 2b87 abbd
000002a0: d01c 623d 40a7 b2bd fe45 233e ed94 0f3d
000002b0: b3e2 a8bd d1b1 8b3d cdcf 02be 9454 373e
000002c0: 8caa cfbb dbc5 dc3d 7d1e 14be a93a 28bd
000002d0: 5f8a 6f3e 1c17 d6bd 3dbb b13d 9112 3fbd
000002e0: 0e59 3e3e 3f19 adbd a62c edb9 9bf7 72be
000002f0: 6b6e 953e 182e 33be 3a9a 38be 6fc6 0bbe
00000300: 23cd 413e 27a0 a4be 2a74 453d c8c2 fcbb
00000310: 3f3a 77be 2a98 92bd 77b7 3b3e d15d c63e
00000320: 6fd1 bb3d aaf7 c23e 5ee4 153e 90e2 3a3d
00000330: 7e4e 933e 5ece 4b3e a334 d03e f00b 51be
00000340: 09d7 fabd 09cc 0abe 8898 6b39 915d eebd
00000350: 785c 18be 6764 80be 446e 83be 577e 4cbe
00000360: ab76 17be 7bf8 b4bd 4337 113e c037 12bf
00000370: fb4e 15be e4ef 283f bf7c e1bd aa3d 7f3d
00000380: 059c 593e f9a4 cd3d eff8 fa3c b4b7 8a3d
00000390: c6dc e4be bc74 fd3c dadc a43e 821b bb3d
000003a0: 5438 843c 3550 99be 820b 71be 93a9 65be
000003b0: b09e 073f 085b d5be 9f91 aabd 582d b13e
000003c0: 3143 60be ebdc 913e 3388 b43d 7ae1 fa3d
000003d0: eb8c 443d 1d9d 023f 5960 53be 300b a0be
000003e0: 42a9 423b 82fa 233d b177 0e3d 59ef 84bd
000003f0: 6ce4 503d 2d6e 943e 68aa a53e f4d9 17be
-0.3122601 -0.10566441 0.20309418 0.0053893575 0.3978835 0.24863864 -0.6027973 -0.11936411
0.17096846 0.31707275 0.19632135 -0.43058425 0.14272605 0.6076116 -0.06267214 -0.26097313
-0.087085664 -0.0072541186 0.07975977 -0.21365757 -0.31122467 0.008258405 0.2197116 -0.13252145
-0.034594096 0.12171487 -0.06427508 0.0075848997 0.05614139 -0.028539699 -0.016604751 0.23451492
0.3181929 0.04721708 -0.53087604 -0.26599905 -0.11553909 0.1724844 0.25167444 0.25441647
0.13904518 0.20885791 -0.021273457 -0.33624473 -0.40250042 -0.10305753 0.042180113 0.084284924
0.12306194 0.35765734 0.39940318 -0.06818595 -0.4547333 -0.15653282 0.26727894 0.30250663
0.040741432 0.109252885 0.12097769 -0.09192348 0.0073278304 -0.39660162 -0.51357114 -0.17773736
-0.31264248 0.3427337 -0.4462366 -0.1865747 0.49025473 -0.3521863 0.11172961 0.46233934
-0.2355649 -0.063773274 -0.57034236 0.4600295 0.07019594 -0.5889522 0.57807916 0.4626897
0.14231122 -0.22208208 0.06652852 0.17192209 0.16296606 -0.45427063 0.45664194 -0.0060682106
-0.026483918 0.11150659 0.027612602 0.18722668 -0.10245866 0.2241482 -0.6015763 0.18853131
-0.07412998 -0.2667286 0.22756062 0.0628049 0.112809286 -0.31382933 0.49420136 -0.37402982
-0.12354241 0.30371192 -0.1030046 -0.17699137 0.0703524 0.25985086 0.17311181 -0.05603927
-0.010366445 0.056848686 -0.34244078 -0.22548696 -0.13421056 -0.39729092 -0.5076603 -0.31469902
0.13655908 -0.007888467 -0.4446034 0.68281996 0.6196125 0.43926293 0.017045828 0.54938745
0.19189036 0.21287012 0.013118314 0.09824907 -0.47974378 -0.5897106 -0.010479499 -0.28987414
-0.2814789 -0.45893312 -0.00014504537 -0.13220559 -0.44966635 0.7532993 0.8883821 -0.055724997
0.06590303 0.23664042 0.567572 -0.31925267 0.06343101 0.4481771 -0.65974766 -0.30752486
0.0870031 0.21527237 0.04995271 -0.08637206 0.36383113 0.1239015 0.03577571 -0.19174133
-0.63451296 -0.033110842 0.15772702 -0.011822359 0.069050275 -0.15625532 0.15949123 -0.083753906
0.05520326 -0.08723307 0.15944669 0.035054136 -0.082463644 0.06821025 -0.12774582 0.17903358
-0.0063374694 0.107799254 -0.14464755 -0.041071568 0.23392628 -0.104536265 0.08678291 -0.046648566
0.18588659 -0.08452081 -0.00045237428 -0.23727266 0.29185805 -0.17498052 -0.18027583 -0.13649915
0.1892591 -0.32153437 0.048206486 -0.0077136494 -0.24143313 -0.07157929 0.18331705 0.3874345
0.09170806 0.38079578 0.14637896 0.045626223 0.28770822 0.19902942 0.4066516 -0.2041471
-0.12248046 -0.13554396 0.00022468169 -0.1163894 -0.14879024 -0.250766 -0.25670063 -0.1997007
-0.14791362 -0.088364564 0.14181237 -0.5711632 -0.1458091 0.65991044 -0.110101216 0.062314667
0.21250923 0.10041232 0.030636279 0.0677332 -0.44699687 0.030939452 0.32199746 0.09136106
0.01614014 -0.29944006 -0.23539546 -0.22427969 0.5297651 -0.41671014 -0.08328556 0.34604907
-0.21900631 0.2848886 0.088150404 0.122500375 0.047985952 0.51020986 -0.20642222 -0.31258535
0.0029702936 0.040033825 0.034782115 -0.064909644 0.05099909 0.28990307 0.32356572 -0.14829236

module.refine_spn.0.2.weight f4 [16, 16, 3, 3]
00000000: aa02 06be b2d3 a13b 0978 e5bc 4c43 c03d
00000010: 1e12 c53d b1fb 1f3e c275 f0be e1ef 95bd
00000020: 8793 1bbe f05b 6f3e b983 ba3d bc2e e03d
00000030: d801 273e debe 2abd 0daa f93d 20ce b33d
00000040: 8822 9ebc 77bd 743d 9df8 933f ebf1 7a3f
00000050: 6ba7 1c3e 7cad 243f e768 563f bb95 bb3e
00000060: bcc5 91be e025 d8bd 4bb4 d13d ae94 4dbd
00000070: 9db9 02bc 464d 18be 6f9f 60bc 74b7 523d
00000080: 6a44 a8bd 1e5a 25be 90b0 afbd ea27 0ebe
00000090: d2c4 8a3f 40ad 4f3f 2b04 453f 018e d53e
000000a0: 6f63 343f f293 be3e eb1a b6be 27bd 09be
000000b0: 2fe1 90be 4978 413f cd4b 503f 224e 9a3e
000000c0: ac0d 7d3e 846a 163f 290c 173e 870e 2dbe
000000d0: 0b05 e7bd 5890 e5bd 6bf9 e8bd 9655 c23c
000000e0: 4c09 823d 548f 01be 3f82 0bbd 48d7 233e
000000f0: 2798 95be 121b 4bbe 919c d83c 3c25 9ebe
00000100: 5e22 22be 7fe6 f7bc 434e 0dbe 3fe1 2dbd
00000110: fbd8 dbbd 49b4 3b3e 99ef 8f3e 196a 3fbc
00000120: be14 643e 9b84 383e b91c e13d d16c c33d
00000130: a33f 8a3e 3bba 01bd 9b66 95bd 5548 513d
00000140: cb21 9ebd a84f 8e3d 0c9a 12bd f771 1bbe
00000150: 16c0 3e3c 6003 50bd fb47 05bd b99f a4bd
00000160: 0593 0abd e524 50bc 942f afbe f75f b1bd
00000170: a89c 84be 4cea 5dbe 18ff e7bd 4705 8c3d
00000180: e7f7 2dbd 3f6a 463e 969b 043e 8c22 5d3f
00000190: 475a 023f 9bb1 35be 39d9 ab3e 799b b03e
000001a0: cca1 293e 6de0 693e f5aa 0cbe 118a cebe
000001b0: f09a 26be 77cc ebbd b63f 57be e4dd 42bd
000001c0: 04c2 443e be5a c33c 06de c4be e94b b13d
000001d0: b0b8 8d3d ef72 653e 6515 033e 328d 303e
000001e0: cac2 ba3e 6179 8abd 22c5 66be eb9d 66be
000001f0: f959 d7be 4c3f 08be 039c 303f 7fcc 423f
00000200: b089 c73e a338 633f 8042 543f 0626 c1bc
00000210: 36a3 4bbe 4a52 b0be d200 bdbe 3eff 28bf
00000220: c7d4 a1be 1e3e cb3d 47c1 8cbe 323b 1bbd
00000230: 6b93 a43e 870a d7ba 6af0 b23e 7755 bd3e
00000240: 16a0 80be 66d5 203e 9014 873e 78a4 63be
00000250: 31c6 903e 9834 1e3e c758 26be b2bc 903e
00000260: 320a ad3e beb0 ffbd d70a 12be 2cc0 56bd
00000270: c18b b7be c04c 5fbe 064f 02bd fd49 92be
00000280: ba6e a3bd 1407 6c3d 8cf4 d2be 0fa8 8a3e
00000290: 70c7 5b3f b4e0 e5be eac4 743e 2a5c 1c3f
000002a0: ec23 0ebd c438 a13e f3c3 a73e ef6c 5bbc
000002b0: da16 9b3e 6f27 a93e 209a 1f3e bbbc df3e
000002c0: f926 853e 2f9f 5cbd 3a4b 893e 59e1 b93e
000002d0: ae4a ddbe 86be 263e 350b 503f 8846 cbbe
000002e0: 1120 903b f947 683e 857d 6ebe fea3 a4bd
000002f0: 3eef 0c3f 6a50 81bf 029e c93e 382f 093f
00000300: 5470 15bf 2e0d 7e3c 8022 63bd 4e0d ddbe
00000310: 611b 17bd 982d e33e 1152 053e 194d 563d
00000320: 7b07 783e cdeb 54be f9a5 fb3b 63fc b0bb
00000330: 5951 6fbe 7e7c 90be 703c 3ebe 2a1e 75be
00000340: 5303 b8be 5c4a 7abe 29b6 c6be a883 963c
00000350: 472f bcbe bd4c 813d 5f53 b53d 8580 a03e
00000360: b142 233d 638c ca3e ec7b 2c3f 824d 21be
00000370: 77fc d2bd dfa7 a5bb a7ea 4fbe 0db9 a43e
00000380: 481b b03e ad4c b1be 1018 d8ba f37b 37bc
00000390: 0079 24be 7047 d23d 08d8 adbd fd11 5d3d
000003a0: 7200 573e b473 eebd 934b ecbd 1128 5bbe
000003b0: f974 05bd fed4 863c 9513 9abd a6bd ea3c
000003c0: 220a 3abd 3ef3 b5be 142e 4abe 65b7 3cbe
000003d0: 8045 063f 41a8 403f 685a b7bd af55 9b3e
000003e0: f08c 103f 0194 d9bd 5a97 d63d 6198 3e3f
000003f0: 37de a2be 61a6 84bd 3e38 9e3e c96c 093e
-0.13086954 0.004938566 -0.028011339 0.09387836 0.09622596 0.15623356 -0.46964842 -0.07321144
-0.15192996 0.23374915 0.09107155 0.10946414 0.16309297 -0.04168593 0.12190638 0.087795496
-0.019303575 0.059751 1.1560246 0.9802539 0.1529824 0.64327216 0.8375382 0.36637673
-0.28471172 -0.10554099 0.10239466 -0.05019062 -0.007978824 -0.14873227 -0.013709887 0.051444486
-0.08216174 -0.16147658 -0.085785985 -0.13882414 1.0841315 0.81123734 0.76959485 0.41709903
0.70464224 0.37222248 -0.35567412 -0.13451062 -0.282968 0.75574166 0.8136566 0.30137736
0.24712247 0.5875628 0.14750732 -0.16900073 -0.11280259 -0.11209172 -0.11375698 0.023722451
0.063494295 -0.12652332 -0.03405976 0.16000092 -0.29217646 -0.19834545 0.026441844 -0.30887783
-0.15833423 -0.030261276 -0.13799386 -0.04245114 -0.10734745 0.18330492 0.28112486 -0.0116830105
0.22273538 0.18019335 0.109918065 0.095422395 0.27001676 -0.031671744 -0.07294961 0.05109437
-0.07721289 0.06948787 -0.03579144 -0.15180193 0.011642477 -0.05078447 -0.03253935 -0.08038277
-0.033831615 -0.012704109 -0.34215987 -0.08660882 -0.2590077 -0.21671408 -0.11327952 0.06836944
-0.042472746 0.19376467 0.12949976 0.8638084 0.50919 -0.17743532 0.33564165 0.34493616
0.16565627 0.22839518 -0.1373709 -0.4033971 -0.16270041 -0.11513608 -0.21020398 -0.047574893
0.19214636 0.02384698 -0.3845064 0.08657057 0.06919992 0.22407125 0.1280113 0.17241362
0.36476737 -0.067614324 -0.22536138 -0.22521178 -0.4206083 -0.13305396 0.68988055 0.76093286
0.38972235 0.88758296 0.8291397 -0.023577701 -0.19886479 -0.34437782 -0.36914688 -0.6601447
-0.3160765 0.09923957 -0.2749121 -0.03789825 0.3214372 -0.0016406336 0.34949046 0.36979267
-0.25122136 0.15706405 0.26382875 -0.22230709 0.28276208 0.1544975 -0.16244803 0.28268963
0.3379684 -0.12484883 -0.14261948 -0.052429363 -0.3584881 -0.21806622 -0.031813644 -0.28572074
-0.07980104 0.057623938 -0.412022 0.27081344 0.8585119 -0.44897997 0.23903242 0.6107813
-0.034702227 0.3148862 0.32766685 -0.013392671 0.30290872 0.33037898 0.15586138 0.43698677
0.26006296 -0.053862747 0.26815206 0.3630474 -0.4322104 0.16283616 0.812671 -0.3970225
0.004398354 0.22683705 -0.2329007 -0.080390915 0.55052555 -1.0102665 0.39378363 0.53587675
-0.58374524 0.015506072 -0.055452824 -0.43174213 -0.036891345 0.44370723 0.13019587 0.05231962
0.24221604 -0.20793076 0.0076796976 -0.0054011806 -0.23370875 -0.2821998 -0.18577743 -0.23937288
-0.35940036 -0.24442428 -0.38810852 0.018373325 -0.3675482 0.06313465 0.088537924 0.31348053
0.039858524 0.39560232 0.6737659 -0.15752223 -0.1030206 -0.005055412 -0.20304357 0.32172433
0.34395814 -0.3462881 -0.0016486663 -0.011198985 -0.16061783 0.10267532 -0.0848847 0.053972233
0.20996264 -0.11643162 -0.11537852 -0.21402003 -0.032582257 0.016458984 -0.07523266 0.028654885
-0.04541982 -0.35537142 -0.1974414 -0.18429334 0.524498 0.75256735 -0.089527905 0.3033881
0.56465054 -0.10623933 0.10478087 0.7445126 -0.3181016 -0.06477047 0.30902284 0.13420404

module.refine_spn.0.4.weight f4 [16, 16, 3, 3]
00000000: f502 eebd 41e3 cfbe 823e 59be 2491 ac3e
00000010: 80c9 8dbe 5067 a6be b495 6e3e 74d4 fe3d
00000020: bc9b 5a3e 5524 083e 2b0d db3e aaed 42bc
00000030: b0e3 b03d 0033 803d ec9a 67bc f61b 973e
00000040: 4abc 183c 2538 2a3e 775c 633e 9883 223e
00000050: 7ccc d63d faa4 1b3e fb71 303c 42e9 393e
00000060: 0414 2a3e 1c7c 823e dc53 8abd a4a1 4abf
00000070: 45dd f2be b4bd 95be 820b 773d bbf0 37be
00000080: 0690 613d 1f16 41be c8e0 dcbd d419 8f3e
00000090: 9f6e c83d 2550 1b3f fceb 4e3f 7e9d 9fbe
000000a0: 22c3 053e 5e80 123d ed8e 87be 3ce6 8dbe
000000b0: 9610 ddbe de9e d9be 9ce1 bfbe ecb0 d6be
000000c0: 0599 afbe 59ad 36be 8db5 7cbe 9858 c8bc
000000d0: 2935 76be 5a4c babb 5398 d43d c73a 333e
000000e0: ab1e 1d3e 70dc bdbc 8174 2dbe 08dd 09bd
000000f0: c1e9 ac3e e746 11bb 3956 6d3d ce7b f43d
00000100: c939 283e a26c ee3d 3b16 07be 55a2 b13e
00000110: 0b2a 4e3d 93fc a6be 72fd 8abe 57ec 943c
00000120: fe6c 63bc 5ced 6ebe 2508 aebd f800 cf3e
00000130: 3382 8bbb 51b0 a3bc b132 023e 0576 41bd
00000140: 8ed8 133e ec40 95be 71bc cd3b 734a 26be
00000150: c818 57bd 345f 31be 9839 17be 99bf 8ebd
00000160: 8ade 1e3d ca3d d43d 574f 81bc 8899 003e
00000170: 3813 013e 9017 8bbd 5d30 533e 5cb0 943d
00000180: 99a2 43be fa67 aabe 9e65 a8bd 5a57 973e
00000190: 83d5 3abd f087 983d 2b09 ee3d 9382 4dbc
000001a0: 7406 553d 22fa 93be 9a18 b6bd ee8b 84be
000001b0: e29d 223d 8c54 2d3e 394f e43e cf32 4dbe
000001c0: cfd3 073e 2ebb 023d 26f6 94be a964 94be
000001d0: 4f4c d7be 680f 863d 6c91 34bf d511 093d
000001e0: d1f0 ca3e 8754 b5bd d858 1cbe a96d 9c3e
000001f0: ca6d 253e 47fe 823e f28f a0bc 6a6e 3bbe
00000200: f21d 4bbf 3424 253e 1087 043e 8003 26bd
00000210: 4c88 213d 3482 b83d c1b6 623e 84a6 b3be
00000220: e6c8 c8be 6e9a bebe bf80 65be f19c 4bbe
00000230: d50c 11be 1bb2 963d f72d 48be 37e6 b0be
00000240: 21a0 b03e 72c1 893e bb3f c03e 3a4d 64be
00000250: dd64 06be d216 883e e6f0 7bbd 344b f0be
00000260: d2cf 323d 58a6 c4be 5f84 cc3d c84e 013e
00000270: e119 03bf 2657 9f3d b323 273e a27f 0fbf
00000280: afac 293e e43a 043e 32ee 43be c970 00bc
00000290: f290 f4bd 10b0 9ebe 80b5 e43d e870 eb3c
000002a0: 7864 393d f61a 0d3e 94c2 4b3d 3360 ce3e
000002b0: 8ff3 24be e529 5d3d 4027 87be 4956 20bd
000002c0: a591 f0be f8cb f83e 70dd 113b 1bce afbe
000002d0: 1de0 9ebe c3a8 edbe 35b1 3dbf cac4 e73e
000002e0: 63c3 5fbd 94f9 9abe c757 613f 4b9f 483e
000002f0: d245 ddbe 3bfb d2be c39e 60be cbb0 1dbf
00000300: 407d 3cbf 426a 4ebe a4e6 59bf 3dff 97bf
00000310: b6c0 05bf 8948 3abf 8b87 823e 68d6 9e3e
00000320: f7ce b43d a1b5 103e 04c5 123e 057a d5be
00000330: 877f f2be 6f8b 06be eabe dd3e 1faf c1be
00000340: 6195 1dbf bcd7 2fbf 41e1 823e 39c0 47bd
00000350: 0afb 7ebe 9b6a 473f 7ad7 d53e b2db ad3c
00000360: 19cb 4fbe e093 85be 37fe 5d3e c83d ae3e
00000370: 6543 17be 6bec d83d 00fc 2ebe 79a3 aebd
00000380: 089f 833e e35d 903e 5aa1 c03d 6e73 803e
00000390: ff15 68be 4600 a43d 25a8 c1bd 7a2f 9fbd
000003a0: 8288 373e 5a4d 02be 25c0 0dbe cd5a 8d3c
000003b0: acd0 c5bd 18f1 b03d 4f10 75be 8501 e6bd
000003c0: 405f cb3e 4c8c 143e a1fb 203d 6b0a ffbd
000003d0: 1445 44be 3df1 b4bd d9d7 0d3e 94cc 59bc
000003e0: 5526 81bd 7a53 053d 2b0d 203c ee30 713e
000003f0: 1758 e9bd fcb4 9fbe be22 b7bf ffad a53b
-0.11621658 -0.40603068 -0.21215251 0.33704484 -0.27692795 -0.32500696 0.23299295 0.12442866
0.2134847 0.1329511 0.42783484 -0.011897484 0.08637178 0.062597275 -0.014136057 0.2951352
0.009322235 0.1662298 0.22203241 0.15870512 0.10488221 0.15199652 0.010769363 0.18155387
0.16609198 0.25485313 -0.06754276 -0.79152894 -0.4743444 -0.29246294 0.06031371 -0.17962925
0.055068992 -0.18856095 -0.10785061 0.27949393 0.09786724 0.60669166 0.80828834 -0.31174845
0.13062719 0.03576695 -0.2647623 -0.27714717 -0.43176717 -0.4250402 -0.37476814 -0.41931856
-0.34296432 -0.17839564 -0.24678631 -0.024456307 -0.24043716 -0.0056853713 0.10380616 0.1750289
0.1534373 -0.023176402 -0.16938974 -0.033658057 0.3377209 -0.0022167505 0.057943556 0.11937676
0.16428293 0.11641814 -0.13192074 0.34694162 0.050333064 -0.32614574 -0.27146488 0.018179102
-0.013880966 -0.23332733 -0.08497647 0.40430427 -0.0042574643 -0.019981535 0.1271465 -0.047231693
0.14438078 -0.29151094 0.0062785675 -0.16239338 -0.052513868 -0.17321473 -0.14768064 -0.06970138
0.03878645 0.10363348 -0.015784902 0.12558568 0.12604988 -0.067916036 0.20623918 0.072602004
-0.19104995 -0.33282453 -0.08222507 0.2955883 -0.045613777 0.07447803 0.116228424 -0.012543338
0.052008107 -0.28901774 -0.08891411 -0.25888008 0.03970135 0.16926783 0.44591692 -0.20038913
0.13264392 0.03191679 -0.29094046 -0.28983048 -0.42050406 0.06545907 -0.70534396 0.03346427
0.39636853 -0.08854013 -0.15268266 0.30552414 0.16155162 0.25584623 -0.019599888 -0.18303838
-0.7934257 0.16127092 0.12942147 -0.04053068 0.039436623 0.09009209 0.22140028 -0.3508798
-0.39215773 -0.37227196 -0.22412394 -0.19884087 -0.14165051 0.0735819 -0.19548784 -0.3455064
0.3449717 0.269054 0.37548622 -0.22295085 -0.13124414 0.2657991 -0.061509036 -0.46932375
0.043655224 -0.3840816 0.09986185 0.12627709 -0.51211363 0.07780294 0.16322212 -0.5605413
0.1656978 0.1291309 -0.19133833 -0.00783939 -0.119417086 -0.309937 0.11167431 0.028740361
0.04526183 0.13779816 0.04974611 0.4030777 -0.16108535 0.053995032 -0.26397133 -0.039144788
-0.46986118 0.48593116 0.0022257231 -0.34336933 -0.3103036 -0.46417817 -0.7409852 0.45267326
-0.054629695 -0.30268538 0.8802456 0.19592015 -0.4321733 -0.412073 -0.21935563 -0.6159789
-0.73628616 -0.20157722 -0.85117555 -1.1874768 -0.5224718 -0.7276693 0.25494036 0.31022954
0.08828538 0.14131786 0.14332968 -0.41694656 -0.4736292 -0.13139127 0.43309718 -0.3782892
-0.6155606 -0.6868856 0.2556248 -0.048767302 -0.24900451 0.7789704 0.41765958 0.021222923
-0.2029232 -0.26089382 0.21679007 0.3403151 -0.14771803 0.10591968 -0.17088318 -0.08527274
0.2570727 0.2819663 0.09405775 0.25088066 -0.22664641 0.08007865 -0.09455899 -0.07772727
0.17923167 -0.1272482 -0.13842829 0.017255211 -0.096589416 0.08639735 -0.23932002 -0.112307586
0.39721107 0.14506644 0.039302472 -0.12453159 -0.19166976 -0.08835075 0.1385187 -0.013293404
-0.063061394 0.032550313 0.0097687645 0.23553821 -0.11393755 -0.31192768 -1.4307477 0.0050561423

module.refine_spn.0.6.weight f4 [24, 16, 3, 3]
00000000: 69eb dc3c 73fb 98be c0f6 2dbe cc84 7a3e
00000010: 41dc e23e 378a 78bd 20b8 eabd 66c6 1d3e
00000020: 71e6 5abd d5be e9bc a62c db3d 99a2 3b3e
00000030: c36f 043e bcc4 f13e ae05 db3e 82c7 05be
00000040: 376d 2d3e dc72 8e3e f594 473e d559 803e
00000050: 60c2 103e e044 40be 39e8 7fbe 614e 8abe
00000060: 6b83 e53e bd39 e53e 9f0e 543f 45d4 3c3e
00000070: 8ac9 7d3e a366 56be ba63 c73e 6b10 6d3e
00000080: 68fe e03d d1e6 1b3e 33b4 9ebd 283a 4bbe
00000090: 0569 9fbe 67af 52bd d8e3 74bd 80a9 943d
000000a0: 6b52 9d3d 22da e5bd 32e7 3bbe 75be 9f3b
000000b0: 2acf e33d ad04 0abe 9133 c5bd a246 9ebd
000000c0: ae44 bcbd d5ab 753e 5a83 e7bc 125b d83d
000000d0: d1c4 353e 301c b1bd 8203 f33e 7b1e ed3e
000000e0: 1429 a73c 09c4 ba3c 3e81 16be 61ad 0d3e
000000f0: 74c2 2c3e 277b dd3d e211 ad3e b6de aa3d
00000100: 7506 69bd 6b66 5fb8 c95e 343d 8ede a03c
00000110: bc01 70bd 1634 a23e 50cb a5bc 8461 e83d
00000120: 3fe8 d83f 56fa 053e 2380 33bf 36f2 7f3f
00000130: 4d58 2b3f c630 d2bd 73f9 693e 5a57 ebbe
00000140: 6d7c d8be a962 033e 680b 9dbd 3538 a83d
00000150: 1e73 a33e e668 84bd 057c 8fbd 2b2b 8e3d
00000160: 81be 5d3b 9b57 9d3d 5f73 20bd 0bad 9cbe
00000170: 4d79 a03d 7a8e 6e3e 6692 a0bd 69c8 3abd
00000180: c034 373d 7c76 bcbd 081a 213c 9ea2 14bc
00000190: 36ea 1b3e 018f e4bd a1e1 eabd 1059 be3d
000001a0: b0f8 80be 5fb0 49bd a7d0 b23d 1d8d 1fbe
000001b0: b57b 813e 920c 583f 5875 963e 5ad0 1d3e
000001c0: 7f7f 053f 4a10 8fbe 8e7e 1d3e 0d1d b03e
000001d0: 18e9 f5bd 282d cd3e 8958 0d3e 0acf ae3d
000001e0: 82f1 b13d 82e8 433e 879c bf3d 7fc1 9cbd
000001f0: b085 7dba fbf8 f23c 83dd 233f 433e ba3e
00000200: e95e 9a3d 322a 2a3e 2fb8 bf3d 404a 9b3d
00000210: d20b fb3c e098 373e e57f ecbd e83c d6bd
00000220: 009e b13e f9fe 96be d65e 9abe 9edf d33e
00000230: 62a1 ecbc a87d ebbd c17e 803c 5d58 91bc
00000240: 3ca3 30bd c1a9 68ba 62c8 a9bd 2fba f4bd
00000250: 91ca 71be 89db 973b 2f1f df3d 60a3 7ebe
00000260: 9520 6e3e eff9 a13c dc87 9f3d 0ff1 463d
00000270: 8ff4 b63d 25a0 31bd ec97 f23d 78c4 b7be
00000280: fb20 1b3e 4963 66be 5075 863c 4819 9b3d
00000290: 4958 e83d 9dfd 84be d18e 1cbe 3b0f 5dbe
000002a0: 32bb dbbe 94e7 5dbe f2ff 71be 7ee9 583d
000002b0: 23e3 72bd ddb7 953d b54b ba3d e6ea 4ebd
000002c0: 0dba 683e 825d bf3e 5e09 6abd 32d3 a53e
000002d0: ce34 29bb 8055 9d3d 77b7 f63c 1edd ee3d
000002e0: e02e da3d d378 083e 03b0 d13e 66b8 bf3e
000002f0: f6d1 7e3e 56fe cb3d c1c7 e83c dfc1 7dbc
00000300: 3c7e 2d3c a7bf d43d 1425 9e3d 35e7 313e
00000310: 10fd a53e e2f1 7d3e aca3 11bc 1e7f 593c
00000320: db5a 353d 8f54 3f3e a2c4 883d 2a64 00be
00000330: 81db d9bd 06f3 a4be 063a 133e 27f8 35be
00000340: eb26 833e 3235 953d 0f28 1bbe 955c a13c
00000350: fd33 adbd 820a 56be 7604 103f 15e4 12bc
00000360: 29c8 d3bd 4521 ce3c 57ba 8ebe b8c6 dc3e
00000370: b94c 1dbd 0667 5bbe b55d b23e a8c2 7f3e
00000380: 375f 43bd f43a 4d3c de10 213d ef8c 13bc
00000390: 26df 043e dd36 ab3d 36e3 be3d 814b c03e
000003a0: cd7b 4c3e cffd bc3e 713c a3bd cac3 17bd
000003b0: fdc8 8ebc 996d 2d3d 6d87 043d 1998 1fbd
000003c0: 2a68 a9ba 8304 10be 2265 a0bc 09e9 55bd
000003d0: 3d73 23bd 5c98 8cbd aa44 a33d 8320 2b3d
000003e0: 35ff b63d 8612 8b3e 9ae8 663d 2a6f 783e
000003f0: b9ad 7dbd 96a8 3ebc 8954 6fbd 523f edbd
0.026967721 -0.2987934 -0.16988659 0.2446472 0.44308665 -0.060678687 -0.114609 0.15407714
-0.053442422 -0.028533379 0.107018754 0.18323745 0.12933259 0.4722041 0.4277777 -0.13064387
0.16936193 0.27822006 0.19490416 0.25068536 0.14136648 -0.18776274 -0.2499093 -0.27012923
0.44826826 0.44770613 0.8283481 0.1844035 0.24783912 -0.2093759 0.38943273 0.23150794
0.10986024 0.15224768 -0.07749214 -0.19846404 -0.3113481 -0.051436808 -0.0597876 0.07258892
0.076817356 -0.11223246 -0.18349913 0.004874999 0.11123498 -0.13478346 -0.09628976 -0.07728316
-0.09192787 0.2399133 -0.028260875 0.10564245 0.17750861 -0.086479545 0.47463614 0.46312317
0.02040533 0.022798555 -0.1469774 0.1383567 0.16871053 0.10814505 0.33802706 0.0834326
-0.056890924 -5.3262727e-05 0.044035707 0.019637372 -0.058595404 0.31680363 -0.020238549 0.11346725
1.6945876 0.13083777 -0.70117396 0.9997896 0.6693161 -0.10263209 0.22849064 -0.4596508
-0.4228243 0.12830605 -0.07668191 0.08213846 0.31923765 -0.0646532 -0.07006077 0.069418274
0.0033835473 0.07682725 -0.039172526 -0.3060077 0.07835636 0.23296538 -0.07840423 -0.045601282
0.04472804 -0.092022866 0.0098328665 -0.009071974 0.15226063 -0.11160088 -0.114688165 0.09294331
-0.25189734 -0.049240466 0.087312035 -0.15581174 0.25289693 0.8439418 0.293864 0.15411511
0.5214767 -0.27942115 0.15380308 0.34397164 -0.1200735 0.40073514 0.13803305 0.08535583
0.08688642 0.19131663 0.09356027 -0.07654094 -0.0009671105 0.029659739 0.64009875 0.36375627
0.07537634 0.16617659 0.09361302 0.075825214 0.030645285 0.17929411 -0.115478314 -0.10460836
0.34690857 -0.29491404 -0.3015048 0.41381544 -0.028885547 -0.114985764 0.015685441 -0.01774233
-0.043124422 -0.0008875393 -0.08290173 -0.11949574 -0.23612429 0.004634325 0.1089462 -0.2486701
0.23254617 0.019772498 0.07789585 0.048569735 0.089333646 -0.043365616 0.11845383 -0.3589208
0.151493 -0.22498812 0.01641336 0.075731814 0.11344964 -0.25974742 -0.15288855 -0.21587841
-0.42916256 -0.21670371 -0.23632792 0.05295705 -0.059298646 0.0731046 0.09096471 -0.050516985
0.22727223 0.37376028 -0.05713784 0.32387692 -0.0025818828 0.076823235 0.03011678 0.116632685
0.10653472 0.13327341 0.409546 0.37445372 0.24884781 0.0996062 0.028415563 -0.015488117
0.010589179 0.10388117 0.07721916 0.17373355 0.32419634 0.24799302 -0.00888912 0.013274936
0.0442761 0.186846 0.0667813 -0.1253821 -0.1063757 -0.32216662 0.14377603 -0.17770444
0.2561563 0.07285537 -0.15152 0.019697467 -0.084571816 -0.20902446 0.56256807 -0.008965512
-0.10340912 0.025162349 -0.2787654 0.4312036 -0.038403247 -0.21426019 0.34837118 0.24976599
-0.047698226 0.012526263 0.039322726 -0.009005769 0.1297575 0.08360074 0.09320681 0.37557605
0.19969101 0.3691239 -0.07970513 -0.037051953 -0.017429823 0.04234085 0.032355715 -0.03896341
-0.001292472 -0.14064221 -0.019579474 -0.052224193 -0.03990482 -0.06864998 0.07972081 0.041779052
0.08935396 0.2716257 0.05637417 0.24261156 -0.061933253 -0.011636874 -0.05843023 -0.11584343

module.refine_spn.1.weight f4 [8, 1, 3, 3]
00000000: 7ac9 f4bd c383 9bbc 9186 45bc eb98 35bd
00000010: 3502 eebd 59e0 a8bd f0e5 7f3e d8a9 5cbe
00000020: dcb0 8c3d 1dad 14be 5d08 cbba 52fe 3ebd
00000030: 0bb3 483e 30e6 c7be f4ae 1f3d ca46 303e
00000040: d52c 0c3e d327 1a3d 6c87 00be ea2a b3bd
00000050: b576 ef3d f351 ddbd 3eac ccbd 39f7 9e3d
00000060: 1478 3b3d 55fc 793b 85c3 733e 6fea c7bc
00000070: 1844 173d 8f02 e03d c87c 75bd cc9c 823e
00000080: 3db6 e53d 1b02 433d ac8c 743e 4c3d 8bbe
00000090: 0de8 4ebd f1e8 1abe 36bd 50be 4729 56be
000000a0: c33f 513e f93c 68be b0db 2e3e 1e21 123d
000000b0: d03f 6abe f14d 6ebe fb2f 0fbe 041a 71be
000000c0: 7deb 06be b22e 1d3e 5a0c 523c e2b1 7d3e
000000d0: 97b6 8f3e d66d 4dbe 3b88 003e f7df 513d
000000e0: 3dc3 1b3e 0495 a93b 0621 573d 6191 b2bd
000000f0: 4a56 5bbe b35b 35be 9d9d b1bd 6fbc a6bd
00000100: 1bf4 42be 8b2d 343e a0cc 023e ddf2 d9bd
00000110: eabb ef3d 6d36 4fbd 5df3 b1bd bb65 103e
-0.11952491 -0.018983727 -0.012056009 -0.044335287 -0.11621515 -0.08245916 0.24990058 -0.21549165
0.06869671 -0.14519162 -0.0015490163 -0.046629258 0.1959955 -0.39042807 0.038985208 0.17214504
0.13688977 0.037635636 -0.1255166 -0.087484196 0.116925634 -0.10806646 -0.0999379 0.07761998
0.045768812 0.0038144786 0.23805054 -0.024403779 0.036930174 0.10937988 -0.059933454 0.25510252
0.112164 0.04760943 0.23881787 -0.27195203 -0.05051427 -0.15127923 -0.20384678 -0.20914184
0.2043448 -0.22679509 0.17075992 0.035676114 -0.22875905 -0.2327192 -0.13983147 -0.2354508
-0.13175769 0.15349844 0.012820328 0.24774888 0.28068992 -0.2006143 0.12551968 0.05123898
0.15211196 0.0051752347 0.052521728 -0.08719135 -0.21419635 -0.17710762 -0.086726405 -0.081414096
-0.19038431 0.17595498 0.1277337 -0.106420256 0.11705764 -0.050589014 -0.08688996 0.14101307

module.refine_spn.2.weight f4 [1, 8, 3, 3]
00000000: 7189 4fbe 63ac 22bf 0c44 393f c89c 3c3b
00000010: b055 8abe 96e5 853d 6191 413e e44c fcbe
00000020: c614 1d3f 4ca8 80be 6a47 473e d84d 3a3f
00000030: 9fe5 873e bbf9 3abf f0e1 30bd 7476 de3e
00000040: aa8f 2cbf 8e27 e73d 8f97 0fbf 3d84 ccbe
00000050: 77c8 d53e ac58 81be 0309 e6be 82c4 e53e
00000060: fd88 423e 9cb0 9e3e 6f20 9d3e 164e bcbe
00000070: 4a5c 703e e108 cabd 684f 7dbd 2ba0 463f
00000080: 8802 56bd 5609 463f 77fc 4ebf 64ad 843e
00000090: 2b6b 903e f9f1 2dbe a7ce 833d 7510 d43e
000000a0: eb03 02bf 81a2 1c3e 4605 7dbf 62da a2be
000000b0: 1ccb a1be b9b3 a1be d5c1 1dbe aa2a afbe
000000c0: cfb9 113f 18df 16be 12a7 3b3e 7656 4b3f
000000d0: 7c5a 3dbe 17fc 013e e521 a63e 7873 d9be
000000e0: 17e6 cbbe 8a3f cdbe 3f6e c73e cf15 cdbd
000000f0: 01cb ab3a 0656 613f e2cd 283e 89c0 2bbe
00000100: 2036 3e3f df8e 363e bea5 ca3e 07ab 1cbe
00000110: b43a ddbe 4e67 44be adb0 4ebe 2870 02be
-0.20267273 -0.6354429 0.72369456 0.0028779972 -0.270185 0.06537931 0.18903114 -0.49277413
0.6135982 -0.251284 0.19460836 0.7277503 0.26542374 -0.7303731 -0.04318422 0.43449748
-0.67406714 0.11286841 -0.56090635 -0.3994464 0.41754505 -0.25262964 -0.4492875 0.44876486
0.1899757 0.30994117 0.30688807 -0.36778325 0.23472705 -0.09864975 -0.061843306 0.77588147
-0.052248508 0.77357996 -0.8085398 0.25913537 0.28206763 -0.16986836 0.064359 0.41418806
-0.5078723 0.15296365 -0.9883617 -0.31807238 -0.31600273 -0.3158243 -0.15405972 -0.34212238
0.56924146 -0.14733541 0.18325451 0.79428804 -0.18491548 0.12693821 0.32447734 -0.42470908
-0.39823982 -0.4008754 0.389513 -0.10013925 0.0013106765 0.88021886 0.16484788 -0.16772665
0.7430134 0.17827938 0.39579576 -0.15299617 -0.4320885 -0.19180033 -0.20184584 -0.12738097

module.feature_extraction.block0.0.0.weight f4 [1, 3, 3, 3]
00000000: b168 9bbe d4e4 fa3c 5ee0 b43e 5925 163e
00000010: a680 9b3e 6483 7e3e 3876 083f dd4d dd3e
00000020: 22b6 a2bc 7945 d93f 5289 943f b319 123e
00000030: 0462 993e a454 233f ba22 313f 4b4b 913e
00000040: f404 273f da59 cd3e ecc5 02bd b296 213e
00000050: e619 0a3e 7750 df3e 6055 363f a4bc 813e
00000060: 49f7 2c3e 77aa 60bd a30f 283e
-0.3035331 0.030626692 0.3532743 0.14662685 0.30371588 0.24854809 0.5330539 0.43223467
-0.019862238 1.6974326 1.1604407 0.14267616 0.29957592 0.63801026 0.69193614 0.28377756
0.6524193 0.40107614 -0.031927034 0.15780142 0.13486442 0.43616077 0.7122402 0.25339234
0.16891207 -0.054850068 0.16412215

module.feature_extraction.block0.0.1.2.weight f4 [1, 1, 3, 3]
00000000: bcb1 1e3f 2d1c 4dbe eadd fe3e 784d 533f
00000010: 269d 7bbd 1eea fe3e 2253 1d3f 1510 11be
00000020: bb47 9d3e
0.6198995 -0.2003028 0.49778682 0.8254008 -0.061429165 0.49787992 0.61454976 -0.14166291
0.30718789

module.feature_extraction.block0.1.1.2.weight f4 [2, 1, 3, 3]
00000000: 7429 953f f9ec 023e 69eb 823d 023d 70be
00000010: a87d 3cbe 9510 afbd 630d 0ebf bba0 bebe
00000020: ab34 1b3d cca8 92bc c4a3 ae3e f187 78be
00000030: ffe6 9bbd cb53 b23f cf10 cbbe f5cd 89bd
00000040: a4d1 24be 8692 0c3d
1.1653275 0.1278571 0.06392557 -0.23460773 -0.18407309 -0.08548085 -0.55489177 -0.37232003
0.037892025 -0.017902754 0.34109318 -0.24270608 -0.076124184 1.3931822 -0.3966126 -0.06728736
-0.16095597 0.034319423

module.feature_extraction.block0.1.2.0.weight f4 [2]
00000000: 28b6 3f3f 73fa 053f
0.74887323 0.5233528

module.feature_extraction.block0.1.2.0.bias f4 [2]
00000000: ba2a ee3d 1234 713f
0.11629243 0.9422008

module.feature_extraction.block0.1.2.0.running_mean f4 [2]
00000000: dce1 01bd cb14 113f
-0.031709537 0.5667235

module.feature_extraction.block0.1.2.0.running_var f4 [2]
00000000: 129f 363d bc4f da3d
0.044585295 0.106597394

module.feature_extraction.block0.1.2.2.weight f4 [2, 2, 3, 3]
00000000: f969 813d 71ad edbd 02c2 2c3e 0560 67be
00000010: 2ef8 a6be f99f b2bd 2a05 e7be ad51 38bf
00000020: 9a95 34be ac2d 213e cb9e 61be f25f 0cbf
00000030: 8d47 57bf 8b5e c9bf 1aa4 19bf a14d 94bd
00000040: 8181 16be adda b9bd da01 68bd c9f1 a33c
00000050: 5f14 99bd 7e85 0e3e 40c5 c13e 0d49 1d3e
00000060: 1953 a93e 172c 553f bf64 053f 38f2 0ebe
00000070: 4b71 efbb d371 433d ea1e 893f ae09 313f
00000080: 3c86 813d 693f 02bf 78ec 89be f48e 07bb
0.06319041 -0.11605347 0.16870883 -0.22595222 -0.3261122 -0.087219186 -0.45121127 -0.7199963
-0.17635193 0.15740079 -0.22033231 -0.548339 -0.8409355 -1.5731977 -0.60016024 -0.07241369
-0.1469784 -0.09074912 -0.05664239 0.020012753 -0.074745886 0.1391811 0.37845802 0.15359898
0.3307121 0.832704 0.5210685 -0.13959587 -0.0073072067 0.047715973 1.0712559 0.69155395
0.06324431 -0.50878006 -0.26938224 -0.0020684572

module.feature_extraction.blocks.0.1.0.weight f4 [2]
00000000: ddba bd3e 6fa0 003f
0.37056628 0.502448

module.feature_extraction.blocks.0.1.0.bias f4 [2]
00000000: 4fa5 8e3f f6a4 683f
1.1144198 0.9087671

module.feature_extraction.blocks.0.1.0.running_mean f4 [2]
00000000: ae2a 76c0 5ae1 e83f
-3.846355 1.8193772

module.feature_extraction.blocks.0.1.0.running_var f4 [2]
00000000: c1c4 8540 1763 f03f
4.180268 1.878024

module.feature_extraction.blocks.0.1.2.weight f4 [4, 2, 3, 3]
00000000: bbb2 d03d a605 1d3e 3cac 543e 7a56 663e
00000010: aa76 e63d efa6 813e f437 8cbe 129d 093f
00000020: 77da 45be 2d28 11be 8a6f 68bd 5177 dfbc
00000030: 11fd d63e 3f33 fa3f f88a b53d c2c5 1ebd
00000040: a61d 323e 1f60 d43d 3da8 8d3e d97d d3be
00000050: 9fda d4bd 8b9a 9bbf 7a67 03c0 c658 033b
00000060: d414 b33e 4c39 40be e377 dfbd 2e8d 6abd
00000070: 6769 3c3d 5ed9 87bd d44c 253c 91d9 4c3e
00000080: cd67 f8bb c4df 3cbc edb5 8dbc cae9 18bb
00000090: 642e ce3c e0a8 12be 29f6 793d b966 9f3e
000000a0: 1f28 a13e 42d4 9abd 0733 c1be b6e7 21bf
000000b0: 53ad e2bc bd82 d53c 405e 81bd 24e2 fd3c
000000c0: d97d 5dbe 4049 d6bf a6b1 883c fc87 17b9
000000d0: 0597 00bd 51b7 2c3d 6a2a d7bd ee79 e8bd
000000e0: 996f 403e 8e94 3bbe d819 1abf 75e4 22bf
000000f0: 3b3c ef3d 96a7 693f 73a2 c13e ed5b 4d3d
00000100: 651c 65bd 8646 c6bd b8ff 52be 5ee5 003f
00000110: ed48 ba3e 3eac f83c e9b0 39be 2171 7abe
0.1019034 0.15334186 0.20768827 0.22493926 0.11253102 0.25322673 -0.2738644 0.53755295
-0.19321619 -0.14175482 -0.056746997 -0.027278574 0.4198995 1.9546889 0.08864397 -0.038762815
0.17394122 0.10369896 0.27667418 -0.41306952 -0.10393261 -1.2156538 -2.0531907 0.0020041927
0.34976828 -0.18771857 -0.109115385 -0.057263546 0.045998957 -0.066332564 0.010089118 0.2000487
-0.0075807334 -0.011527959 -0.017298663 -0.0023332709 0.025168605 -0.14322233 0.061025772 0.3113306
0.31475922 -0.07560016 -0.37734243 -0.6324419 -0.027670538 0.026063317 -0.06316805 0.030991621
-0.21630038 -1.6741104 0.016686272 -0.0001445114 -0.031394023 0.04216701 -0.10506137 -0.11351381
0.18792571 -0.18318388 -0.60195684 -0.6362985 0.1168141 0.9127134 0.3781925 0.050136495
-0.055935282 -0.0968142 -0.20605361 0.50349987 0.36383763 0.030355569 -0.18133892 -0.24457218

module.feature_extraction.blocks.0.2.0.weight f4 [4]
00000000: 8f0f de3e 5b00 3b3f b7cd bf3f b53c 143f
0.43371245 0.7304742 1.4984654 0.5790513

module.feature_extraction.blocks.0.2.0.bias f4 [4]
00000000: b89c a03e 7c06 b03f 4add b5be 18ff 283e
0.31369567 1.3751979 -0.35520393 0.1650356

module.feature_extraction.blocks.0.2.0.running_mean f4 [4]
00000000: 8eaf 5f40 fb2f 70c0 46b4 11c0 4a9a 9a3d
3.49509 -3.7529285 -2.276628 0.075489596

module.feature_extraction.blocks.0.2.0.running_var f4 [4]
00000000: d320 8d3f 734c d13f 2ec2 613f 947b 8e3e
1.1025642 1.6351455 0.8818692 0.27828658

module.feature_extraction.blocks.0.2.2.weight f4 [4, 4, 3, 3]
00000000: 9510 2f3e 0777 93be 5ef7 8f3e 8fb0 4fbe
00000010: c8da a9be 39fc 83bd d071 973d 92f0 46bd
00000020: 8453 013e 80af cd3d 11dc c1be b2a3 f1be
00000030: 7140 eabd a40b 093f 15c1 f33e fab1 a03d
00000040: 3f9a 433e eb68 c33c ed9f 313f 88d8 a43f
00000050: 169a 783f 0eb0 903d eb15 8ebe 5263 28be
00000060: 79d0 213c 10a9 c0bc 8a3b 413d 9b0e 88bf
00000070: cc85 c2bf a07e f5be e1ca 943d 5d84 3bbe
00000080: be6e 85b9 8041 d63d 9395 c63c 9c3c 353d
00000090: 8df1 dfbe 65fc 33bf fc93 92be bc26 073d
000000a0: 87bc b5be facc c0be 4837 1fbc 08f5 b4bd
000000b0: b173 52be 09b7 5e3e 1504 e83b c8ca 493d
000000c0: bd54 953d 043c c4bf 62ce aebe e97f 00be
000000d0: 2e8b 95bf 5e7d 6ebe b39c 5d3e 0acf 993e
000000e0: db2a 473e b94d 933e 47e0 2c3f 8e81 963e
000000f0: 4d84 b83c 948f a23c 3918 043d 81a6 03be
00000100: d606 14be 006a f83d c11c cabe 34cd babe
00000110: 9498 41bd 4a8b 333e f01f c63c 2495 d2bd
00000120: 7ffc 913d 83b0 a13e b29e 783e 0232 d7be
00000130: 4900 6cbf 37c1 83be 4880 c4bd a4c6 8cbc
00000140: f0e5 e43d fffd 17bd 7e23 053f af10 56be
00000150: 3e1c 623e 14e3 c13f ecf0 293f a964 963e
00000160: 1c52 073f b214 0a3e 7ae6 0dbe 7101 10bf
00000170: ebb6 64bd 5744 09bf a42b 83bf 3f0c 35bf
00000180: 6587 1e3d 6053 24be f60d 65bd 799f 04bd
00000190: 8d0b b4be 091c 73bc 19dc 873e 1eef 9c3e
000001a0: 5440 913d d392 ac3c 8f40 943d 9f17 103d
000001b0: 2e49 06bd 15d7 4b3f 58f7 eebd 5d45 ac3e
000001c0: 0100 dc3e 8414 a53e d535 8ebd 59db 62bd
000001d0: 23c5 cdbd 11db 01be 5ed3 793e 3923 fd3e
000001e0: 8850 043e 36bd 95bf c02a 43bf 4bef bfbd
000001f0: 0de6 f8be 2cf2 453e 62e7 f1be 90ae bdbf
00000200: b9a6 24bf 590f 053e 1838 853e 0cb7 1f3e
00000210: 9552 4e3d 5983 76bd dd8c 58bc b686 f13e
00000220: 1488 043f f122 f7bc 4dd6 35be 14f1 53be
00000230: 1ae9 83bc 8d46 853d 2756 87bd 8876 c3bc
0.1709617 -0.28801748 0.28118414 -0.20282196 -0.3317473 -0.06444592 0.07394755 -0.04856927
0.12629515 0.100432396 -0.3786321 -0.47195202 -0.114380725 0.5353339 0.47608247 0.07846446
0.19101809 0.02385374 0.6938465 1.287858 0.97110116 0.0706483 -0.27751097 -0.16444138
0.009876364 -0.023518115 0.04717592 -1.0629457 -1.5197082 -0.4794817 0.072652586 -0.18312211
-0.00025450246 0.10461712 0.024241244 0.044247255 -0.43738976 -0.70307 -0.28628528 0.032995924
-0.35495397 -0.37656385 -0.00971777 -0.088357985 -0.20551945 0.2174951 0.0070805647 0.049265653
0.07291553 -1.5330815 -0.34141833 -0.12548794 -1.1683099 -0.23290011 0.21641807 0.3004077
0.19449942 0.28770235 0.6752972 0.29395717 0.022524023 0.019843854 0.032249663 -0.12856485
-0.14455733 0.12129593 -0.39475062 -0.36484683 -0.04726465 0.17533603 0.02418515 -0.102823526
0.07128238 0.3157998 0.24279287 -0.4203034 -0.92187935 -0.2573335 -0.0959478 -0.017184563
0.111766696 -0.037107464 0.5200728 -0.20904802 0.22081086 1.5147424 0.6638324 0.29373673
0.52859664 0.13484457 -0.13857451 -0.562522 -0.055838507 -0.53619903 -1.0247693 -0.7072181
0.03870334 -0.1604743 -0.055921517 -0.032378647 -0.35165063 -0.014838227 0.2653511 0.30651182
0.07092348 0.021066105 0.07238876 0.035178777 -0.032784633 0.79625064 -0.11668271 0.3364667
0.42968753 0.32242215 -0.069438614 -0.055384967 -0.100473665 -0.12681223 0.24397036 0.49440935
0.12921345 -1.1698368 -0.76237106 -0.093718134 -0.48613015 0.19330662 -0.47246844 -1.4818897
-0.643169 0.12994136 0.2601936 0.1559717 0.050371725 -0.060183857 -0.013217178 0.4717309
0.5177014 -0.030168029 -0.1775753 -0.20697433 -0.016102362 0.06507597 -0.06608229 -0.023860231

module.feature_extraction.blocks.1.1.0.weight f4 [4]
00000000: e485 cb3e d76c bc3e 76cc 0b3f 3788 033f
0.39750588 0.36801788 0.5460886 0.5137972

module.feature_extraction.blocks.1.1.0.bias f4 [4]
00000000: e238 273f a973 873f 3d98 9c3f cfce 893f
0.6532117 1.0582172 1.223396 1.0766238

module.feature_extraction.blocks.1.1.0.running_mean f4 [4]
00000000: 1f0a bd3f 7251 80c0 b1cc 9340 bba7 96bf
1.4768714 -4.009942 4.6187367 -1.1769937

module.feature_extraction.blocks.1.1.0.running_var f4 [4]
00000000: 332c 1240 61ca c140 7897 ee40 538a 3240
2.2839477 6.0559545 7.45599 2.7896926

module.feature_extraction.blocks.1.1.2.weight f4 [8, 4, 3, 3]
00000000: e82c 18bd 40d4 8abd 6998 f3bc 7096 c6bd
00000010: da9f 613f 39ee ffbb e0a8 883d 5aa9 e53c
00000020: 5a53 f3ba e938 b1bb 48ce e23e 0368 a4bd
00000030: d787 a33d bfb0 dabf 054d 4b3e b9a4 55bd
00000040: 71de 9abe 47ae bc3d d05b 1dbe f67b 3cbf
00000050: 9daf 5bbc eec7 a2be e740 ac3f f3ad 96be
00000060: 8962 73bc a0c6 8b3d 2fe1 0abd 8e87 86bc
00000070: 0244 413e 28f7 053d c208 0e3e 8c6f 15bf
00000080: 2b51 b03d edc7 903b 3e96 0bbd 5d43 cebc
00000090: ab7b adbd 0993 aabd 9963 87bd b850 fe3c
000000a0: 5e0d 40bf d75a 1b3d 726c 343c b8ea e9bc
000000b0: 3611 9abd 2924 dbbc c77a 7e3e 6a54 7b3b
000000c0: a43e 20be a710 a63e 3b50 083e 0094 fdbd
000000d0: b724 e13d d88e 8bbe 7a70 f3bd f880 fcbd
000000e0: bc6f 63be dc46 6b3e e94a 0dbf d949 483d
000000f0: b467 bcbc 9e23 0f3d 9708 1d3e 57bd 0cbc
00000100: d8f7 85bc bcd5 49bd abcf 103e 4222 1cc0
00000110: 33bc 633e 825f b43c a4eb 87be bc50 2c3e
00000120: 571e 84bc 2282 03be 1fc2 eebd f9a8 323e
00000130: 6b59 c7be 3981 ab39 6b7e 9cbd 8612 9abc
00000140: b100 c43d 4dae 7abe 6dfd 083f 3fdd 5a3e
00000150: 2341 a43e 2676 f1bf e283 54be 349a 2cbd
00000160: a01f 26be 8e1a 393c f48d 0b3d 4ff2 0fbf
00000170: fe6b 64be 550d 3ebe 8a3e 8a3f 7752 583e
00000180: 549f 7fbb 9842 ea3d 2915 a9bc a0bd a9bc
00000190: 9a31 eb3c 93f3 123d 90db 5dbe 1320 a13f
000001a0: 2457 633e 0ad7 22bd c9ec b5bd 583b 31bb
000001b0: 7c29 18bd 59d6 00be 00b5 3abd cca0 53be
000001c0: f7bf b1bf 0415 50be 0cb7 1ebe afdb 29bc
000001d0: 3397 bfbd c44a bc3e bd14 cdbe 97a4 af3d
000001e0: 6c37 133e e9b4 4fbe 2d63 69be f234 763b
000001f0: 4b29 0e3c ed49 ec3d 75fc e33c 6473 b83e
00000200: a033 8b3d d078 a8be f3e6 87bf 0ab5 44bd
00000210: 4033 4bbb 8c3a 83bd 32ed bc3c 9f1d aebd
00000220: 0ded d6be df23 2a3d 1662 efbe a4cb 86bf
00000230: caf0 34be 5c36 32bd 220d b0be f523 0a3c
00000240: fde4 13bc 9ab3 15be 445d 10be b1b3 28bf
00000250: 2186 f5bf 1205 8d3e 3853 31be 2b90 33be
00000260: 4b32 00be 5755 ccbd 24a8 dcbe 620a 94bd
00000270: e9f4 b43e e62b a1bd 0bf8 e73e c4f1 213e
00000280: 0995 9bbc 0f24 e3bc f389 b93e d7d2 473e
00000290: 79f6 f13d 5b3c a3bd b25a d9be 9537 07be
000002a0: b635 4dbe 5368 7dbe ca4f 05be f0ca 573d
000002b0: 9e98 d3be 82c2 42be 2e6e 8abe 3d64 78be
000002c0: ca9f 8bbe 1235 c5bd 8b9c bfbd 468d 093b
000002d0: 509f 833c 2b14 efbd f007 afbc 1f95 283c
000002e0: dcaf 91bf 1ce9 1fbe fe7f e9bb f97a 113e
000002f0: d581 c1bd e21e 0e3d 49e4 03bf 3f4f 8bbc
00000300: 15de 06be a64b 5a3f 0012 0f3e 7048 483d
00000310: 6b36 0abe 9143 3b3d 6950 953e 0065 253e
00000320: b13b 9a3e 4e40 233e 3e7b e4bf 1f66 90be
00000330: 5c2a ebbb 9ac0 08bf 64cb 94bd d52f ce3c
00000340: a950 a2bc 344f 04bb 1aa6 25be 637a aabb
00000350: bcb8 36be a817 50bc b0f3 debe 6be6 0ebd
00000360: afc8 14bd 41f7 5bbe 0100 3a3d 0b26 5f3e
00000370: 87ee 70bc 4d4f 003d a118 f5bd 620a 09be
00000380: fef1 91bc 5260 24be 7752 8bbe 10ae f9bd
00000390: 7b91 903d 0ba3 933f 3c8b 00bd 00fb 2fbe
000003a0: c04c 953e 2879 c0bd a1c6 48be 37fa 5fbf
000003b0: 9c1c 8dbd ba7a c03d c69f 4dbf 0f7e 9d3e
000003c0: 2613 2f3e 49e2 c7be 5339 f83d fae9 b4bd
000003d0: 5c8f 633e 9159 0d3d 2f7a 15be cc77 f43f
000003e0: 6a7e 85be a764 55bd 905d 8dbd b2d0 99bb
000003f0: 12cc b3bd 6cbb 7e3e 3648 d43d 0c72 8cbd
-0.0371522 -0.06778765 -0.02973576 -0.096966624 0.8813454 -0.007810381 0.06672835 0.028034855
-0.0018564269 -0.0054083955 0.44298005 -0.08027651 0.07984894 -1.7085189 0.198536 -0.052159045
-0.30247834 0.09212928 -0.15367055 -0.7362665 -0.013408569 -0.3179316 1.3457307 -0.29429588
-0.014855036 0.06824994 -0.033906158 -0.01642206 0.18873599 0.03270641 0.13870528 -0.5837333
0.086092316 0.0044183643 -0.03407883 -0.025178606 -0.084708534 -0.08328826 -0.066107936 0.03104435
-0.75020397 0.03792843 0.0110121835 -0.028554305 -0.07522814 -0.026750641 0.24851523 0.0038349875
-0.15648896 0.3243458 0.13311855 -0.123817444 0.10993331 -0.2725742 -0.118866876 -0.12329286
-0.22210592 0.2297625 -0.5519243 0.04889855 -0.022998668 0.034946077 0.15335308 -0.008590064
-0.016353533 -0.0492761 0.14141719 -2.439591 0.22239761 0.022018198 -0.26546967 0.16827673
-0.016127748 -0.1284261 -0.116581194 0.1744727 -0.38935408 0.0003271194 -0.076413 -0.01880766
0.095704444 -0.24480553 0.535117 0.21373461 0.32080945 -1.8864181 -0.20753434 -0.042139247
-0.16223001 0.011297835 0.034070924 -0.5622911 -0.22306821 -0.18559773 1.0800335 0.21125208
-0.003900488 0.11438483 -0.020639973 -0.020720303 0.028710175 0.03587682 -0.21665788 1.2587913
0.2220121 -0.03975586 -0.08883054 -0.0027043428 -0.037148938 -0.12581767 -0.04558277 -0.20666808
-1.3886708 -0.20320517 -0.15499514 -0.010367318 -0.09355011 0.36775792 -0.40054885 0.08576315
0.1437661 -0.20283855 -0.22791739 0.003756818 0.008676837 0.11537538 0.027830342 0.36025536
0.06796956 -0.32904673 -1.0617355 -0.048024215 -0.003100589 -0.06407651 0.023062322 -0.085017435
-0.4197773 0.041538116 -0.4675452 -1.0530896 -0.17669979 -0.043508872 -0.3438502 0.008431424
-0.009026763 -0.14619294 -0.14098078 -0.6589919 -1.9181558 0.2754293 -0.17316902 -0.17535464
-0.12519185 -0.09977215 -0.4309703 -0.07228543 0.35343102 -0.07869701 0.4530643 0.15814883
-0.018991964 -0.027727155 0.3623806 0.19514023 0.11814589 -0.07970496 -0.42452008 -0.13204797
-0.2004002 -0.24746828 -0.13018718 0.05268377 -0.41327375 -0.19019511 -0.27037185 -0.24256988
-0.27270347 -0.09629263 -0.0935603 0.0020988747 0.016067177 -0.116737686 -0.02136609 0.0102894595
-1.1381793 -0.15616268 -0.0071258536 0.14207067 -0.094485916 0.03469742 -0.5152021 -0.01700556
-0.13170655 0.8527168 0.1397171 0.048897207 -0.13497321 0.045718733 0.2916291 0.1615181
0.30123666 0.15942499 -1.785011 -0.28202912 -0.0071766805 -0.53418887 -0.07265356 0.025169292
-0.019813852 -0.002018881 -0.16176644 -0.005202578 -0.17843908 -0.012700953 -0.43545294 -0.034887712
-0.0363242 -0.21481039 0.04541016 0.21791856 -0.014705307 0.031325627 -0.11967588 -0.13382867
-0.017815586 -0.16052368 -0.27211353 -0.12191403 0.07058998 1.1534132 -0.031382784 -0.17185593
0.29160118 -0.09398109 -0.19607021 -0.8749117 -0.068902224 0.09398408 -0.8032192 0.30760238
0.17097148 -0.3903983 0.12120309 -0.0883369 0.22222656 0.034509245 -0.1459739 1.9099059
-0.2607301 -0.052097943 -0.06902611 -0.004694068 -0.08779158 0.24876183 0.10365336 -0.0685769

module.feature_extraction.blocks.1.2.0.weight f4 [8]
00000000: a761 483f 60be 043f 9ccf 283f 8bb4 543f
00000010: af99 023f efa3 5c3f d5b7 5b3f f4bc eb3e
0.78274006 0.5185299 0.65941787 0.83087987 0.5101575 0.8618764 0.8582738 0.46042597

module.feature_extraction.blocks.1.2.0.bias f4 [8]
00000000: 0a23 ac3f c562 383f 8ba4 b63f a047 7fbf
00000010: 1c20 f9bd 7031 32bf 3607 5c3f 9afd 413f
1.3448193 0.7202571 1.4268965 -0.99718666 -0.121643275 -0.69606686 0.85948503 0.7577759

module.feature_extraction.blocks.1.2.0.running_mean f4 [8]
00000000: 0299 a6bf 17bf 5ec0 004f b6bc 0423 b2c0
00000010: 5a73 80c0 7549 65c0 eea6 923e 243a e93f
-1.3015444 -3.4804132 -0.022254467 -5.5667744 -4.014081 -3.5826085 0.28642982 1.8220868

module.feature_extraction.blocks.1.2.0.running_var f4 [8]
00000000: ab0d 423f b9cf 9c3f 9f48 283f 0d3d 9c3f
00000010: 06e4 a93f e4ec de3f 508d 2d40 0d81 ae3e
0.75802106 1.2250892 0.6573581 1.2206131 1.3272712 1.7416043 2.71175 0.34082833

module.feature_extraction.blocks.1.2.2.weight f4 [8, 8, 3, 3]
00000000: 6c40 f0b9 ddeb 4fbe f7e4 cbbc 10a0 073d
00000010: 23e0 1a3f 42db ff3d ae04 183e 215b 133e
00000020: 4809 1d3d f8ec 1fbe aaab f63d e111 a4bd
00000030: 8804 ab3d 387b eb3f bc6f f33d 3543 123e
00000040: e899 a53d 9577 453d f930 8f3c 277c 6dbc
00000050: 47f8 1b3d 57dc aabe f706 debf 3688 823e
00000060: 9940 b4bd eba0 b53d 1820 0dbe 7ba1 a6be
00000070: fb5e c7be 2d40 77be b61c ae3d 8803 88be
00000080: 3c17 8bbe 915f e0bd 41ab b0bd 985d 8dbe
00000090: af1f 82be 0d9a 57be 8dac 52be 43ef f63c
000000a0: b22c b13c 91d4 c3bd 8e28 4f3d a863 6dbd
000000b0: 9d22 1fbe ab47 933e c0ac ac3e aa44 3a3e
000000c0: e245 47be 6316 39bf 51e6 fbbe 87b6 e33a
000000d0: a130 2bbe 2865 3e3e 79c8 d7bd 88fd 183e
000000e0: e921 80bd 28fe 843e a826 70bf f4f1 8a3d
000000f0: a6a6 ecbd a3ac a5bd 01d0 8e3d a6d0 233d
00000100: 49c4 193e 48db 7bbd 2e35 303d 6792 993e
00000110: 6aed 263e 9e46 0cbb 42c6 f1bd 9693 623c
00000120: dfe2 903c c7c8 e03d e1eb fbbc df88 103e
00000130: c539 a5bf 52b1 0cbe 6d6a 00be 45a1 1ebc
00000140: ce79 bc3d 4468 073e 81a3 05be 3c97 ad3d
00000150: 6c6a f6bc cef2 343d 244e b5bc 7cdb 30bd
00000160: dfe5 f83d 6b5e 01bd c03d 27be 5973 3dbe
00000170: 9947 70bd c9d8 8e3d fca2 44bf 11e4 a43b
00000180: c1e9 f2bd ff46 60bc b941 3dbd 9d37 5cbf
00000190: 1b78 4ebf f02a f6be b85b 2f3f 1061 633f
000001a0: 4e16 173f 3907 543e b906 f83d 0c39 4cbd
000001b0: 93ba 53be 0bc9 05bf bca0 62be 127e 76ba
000001c0: 93bc de3b 3502 f53c 2e31 88be 8d13 14bc
000001d0: dba7 963d 5f4e f4bd dbba 42bf 97b7 d2be
000001e0: d2cc adbc b92f 863f ec0a 6c3e ff70 06be
000001f0: 0358 2fbd c2f3 903c cbea 1fbe 82c5 73be
00000200: ce31 953d 8e27 723e 3dfc 04bd 74c7 623e
00000210: 7f09 76bc fcf4 72be 7668 68bd 5f2f f0bc
00000220: 1513 213e a9b6 663d d736 123d c15c 72bf
00000230: a7aa c7bd 5f5c 7ebd 561b 4cbd 39c0 8bbc
00000240: 0e15 163d 925d 853e 327a a73e c986 a7be
00000250: 97ed 1340 52ea b2bc d8bd d83d 5277 95be
00000260: 3e2c 213b 91ee 02be 6138 3ebe b1b8 33bd
00000270: 298c 54bc 6065 5b3c 1b54 1a3c 2829 953d
00000280: 2457 34be ba78 913d 6704 f33c ced2 233e
00000290: 5aff 3bbd df12 6abe 3de1 4b3f a69d 86be
000002a0: 6842 cf3c 73f1 a93d 453e ca3e 5caa 9fbe
000002b0: 410c a8bd e584 403e b369 b03d 1428 913e
000002c0: dbd5 b03d e480 4fbd a4e1 4e3e 77bc 41be
000002d0: d373 82be 7927 e5be df76 74be 85f9 183c
000002e0: d749 72be df19 80be 54aa 7fbe d09a 6bbe
000002f0: f6e4 21be 72f1 a6bd ab37 d6bd c7ef 3bbb
00000300: 5bcd 033e b4ce c5be 22f3 ba3e 2c6d 113e
00000310: 9ffe 57be 659e c73d 43e8 f1bd 82c8 24bf
00000320: bff6 44be 8b3a 2dbe 2528 fabf a254 b7be
00000330: aab1 f1bd a77a 0cbf 5345 88bd 93d8 ae3d
00000340: 00c3 afbd 7cec 103d b627 083e a5c4 d1be
00000350: 6c27 aebe c369 09be c611 163d f663 a0bd
00000360: fbe2 643d 9486 52be 4707 eebc 35c7 803e
00000370: b162 883f 0604 323c 511d acbd 1284 053e
00000380: 45d0 dc3d bedf 74bb b1d4 673d c4c9 a03d
00000390: 0548 d3bc e7cd 87bf 8868 0e3d 0783 e93d
000003a0: 2ff7 20bd f838 1b3e 6cfc 913d f458 aabe
000003b0: ca30 21be e4af 5bbd 1019 4dbf 5912 c43c
000003c0: 67b6 743c 18f3 a83c a9d5 5fbd f64a db3d
000003d0: 25e6 8b3c a53a 8f3d 4ef4 d63d bb22 46bf
000003e0: ebd5 90be 594c 843e 5548 d33e bff7 a33e
000003f0: b487 e2bd 48fe 8fbe 4c94 2dbe 8b4f ac3e
-0.00045824365 -0.20304818 -0.024889452 0.033111632 0.60498255 0.12492992 0.14845535 0.14390232
0.03833893 -0.1561774 0.12044461 -0.08011223 0.08350474 1.8396978 0.11886546 0.1428345
0.08085996 0.048209745 0.017479407 -0.014494932 0.038078573 -0.3337123 -1.7345876 0.25494546
-0.088013835 0.08868583 -0.13781774 -0.32545075 -0.38939652 -0.24145575 0.0850157 -0.26565194
-0.27166164 -0.10955728 -0.08626414 -0.2761047 -0.25414798 -0.2105486 -0.20573635 0.030143386
0.021627758 -0.09562028 0.050575785 -0.057956368 -0.15540548 0.28765616 0.33725548 0.18190256
-0.19460252 -0.72299784 -0.49199155 0.0017373123 -0.16717769 0.18593276 -0.10536284 0.14940464
-0.06256468 0.25975156 -0.93808985 0.0678443 -0.11555223 -0.080895685 0.06973267 0.039993905
0.15016283 -0.06148842 0.043019466 0.2999451 0.16301504 -0.0021404396 -0.11805393 0.013829133
0.017686306 0.10975795 -0.030752124 0.14114712 -1.2908255 -0.13739517 -0.12540598 -0.009682004
0.0920292 0.13223368 -0.13050653 0.08476111 -0.030080043 0.04417687 -0.022131987 -0.043178067
0.121532194 -0.031584185 -0.1633215 -0.18501033 -0.05866203 0.06974942 -0.76811194 0.0050320704
-0.11860991 -0.013688802 -0.046205256 -0.8602236 -0.80652016 -0.48079634 0.68499327 0.8881998
0.5901841 0.2070588 0.12110657 -0.04985909 -0.20676641 -0.5225989 -0.22131628 -0.0009402941
0.006797382 0.029908279 -0.2660002 -0.009037864 0.07356235 -0.119290106 -0.7606637 -0.41155693
-0.02121583 1.0483314 0.23051041 -0.13129042 -0.042808544 0.017694358 -0.1561691 -0.23805812
0.0728489 0.23647901 -0.032467116 0.22146398 -0.0150169125 -0.23726267 -0.056740247 -0.029319463
0.15729935 0.056326542 0.03569683 -0.9467278 -0.09749346 -0.06209981 -0.049830757 -0.017059432
0.036641173 0.2604795 0.32710415 -0.3272002 2.3113763 -0.021840248 0.10583085 -0.29192597
0.002459302 -0.12786318 -0.18576194 -0.043877307 -0.01297287 0.013390869 0.009419466 0.072832406
-0.17611367 0.07103105 0.029665185 0.15998384 -0.04589782 -0.22858761 0.7964056 -0.2629215
0.02530022 0.08298006 0.39500633 -0.3118466 -0.08205462 0.18800695 0.086139105 0.2835089
0.0863454 -0.05066003 0.20203263 -0.1891955 -0.25478992 -0.44756678 -0.2387347 0.009336834
-0.2366098 -0.25019738 -0.24967319 -0.23008275 -0.15809998 -0.08151521 -0.104598366 -0.0028676854
0.12871306 -0.38634264 0.3651362 0.14201802 -0.21093224 0.09747008 -0.118118785 -0.6436845
-0.19234751 -0.16916864 -1.9543501 -0.35806757 -0.11801465 -0.5487465 -0.066538475 0.08537402
-0.08582115 0.03538178 0.13296399 -0.4097034 -0.34014452 -0.13419251 0.036638044 -0.07831566
0.055880528 -0.2055915 -0.029056204 0.25151983 1.0655118 0.010865217 -0.08404029 0.13038662
0.10781912 -0.0037364806 0.056599323 0.07850984 -0.025791178 -1.0609711 0.034767658 0.114019446
-0.039298233 0.1515845 0.07128224 -0.3327099 -0.15741268 -0.05363454 -0.8011637 0.02393453
0.014936066 0.020623729 -0.05464712 0.10707657 0.017077515 0.069936074 0.10495816 -0.77396744
-0.28288206 0.258395 0.41266122 0.32024953 -0.110610396 -0.2812369 -0.16951102 0.33654436

module.feature_extraction.upblocks.0.conv.0.0.weight f4 [12]
00000000: ef91 003f 4059 513f fdf2 313f d391 1d3f
00000010: 8da6 643d 5c7f 2a3e d464 5b3e 09c1 e23d
00000020: 7a04 493e 9b0b 4f3d 7773 05bd 856b a13e
0.50222677 0.8177681 0.69511396 0.61550635 0.055822898 0.16650146 0.21425182 0.11071975
0.19630614 0.050548177 -0.03258082 0.31527343
