scripts/neuralnetwork/checkpoint/kitti2015_2x_downsample/checkpoint.tar (torch, 650115 bytes, 300 tensors)

module.refine_spn.0.0.weight f4 [16, 3, 3, 3]
000000 b3 4e 9b be 95 6f e1 bd 7e b3 47 3e 90 14 2f 3c
       -0.3033348 -0.11007611 0.19502065 0.010686055
000010 86 4d cb 3e fd 68 6e 3e ee cb 18 bf 50 55 dc bd
       0.39707583 0.23282237 -0.5968617 -0.107584596
000020 ce a0 35 3e 80 a9 a5 3e 09 39 49 3e 63 b2 dd be
       0.17737123 0.3235588 0.19650663 -0.4330016
000030 96 6b 13 3e de c6 1a 3f 58 20 8e bd 67 85 87 be
       0.1439651 0.604597 -0.06939763 -0.26468965
000040 a9 4b ae bd 25 c6 33 3b be dc a8 3d 94 ae 60 be
       -0.08510525 0.0027431336 0.08245228 -0.21941596
000050 03 21 a3 be 06 e0 6f 3c e4 69 5f 3e be 06 12 be
       -0.31861123 0.014640814 0.21817738 -0.14260384
000060 7e 9d e2 bc 8f 77 08 3e 61 e0 56 bd 7d bc 9b 3a
       -0.027662989 0.13326858 -0.05246008 0.0011881735
000070 67 a0 65 3d 49 98 e6 bc 85 63 a1 bc 1a ff 70 3e
       0.056061175 -0.028148787 -0.019700775 0.23534814
000080 99 44 a2 3e 07 92 2a 3d 37 82 08 bf a6 09 8a be
       0.3169296 0.04164317 -0.5332369 -0.26960486
000090 6a 07 02 be 86 a2 2a 3e da 7b 7a 3e 37 3f 7f 3e
       -0.1269814 0.1666356 0.24461308 0.24926458
0000a0 11 86 0d 3e 8f 73 58 3e 63 26 fa bc f7 f5 ae be
       0.13820674 0.21137832 -0.030535882 -0.3417203
0000b0 27 92 cf be ff 1c dc bd bf 81 35 3d a7 54 a8 3d
       -0.40541193 -0.10747718 0.04431319 0.08219271
0000c0 cd 67 02 3e b2 59 bb 3e 10 81 d1 3e f2 75 8f bd
       0.1273491 0.3659187 0.4091878 -0.07004918
0000d0 d1 58 e7 be 36 3f 1a be 30 55 8a 3e db f9 9d 3e
       -0.4518495 -0.15063176 0.27018118 0.30854687
0000e0 db 46 5a 3d ff c0 e4 3d b3 43 04 3e ff b3 a2 bd
       0.05329023 0.111696236 0.1291645 -0.07944488
0000f0 8c e3 df 3a 95 42 c9 be 24 7a 00 bf 59 45 35 be
       0.0017081364 -0.3930861 -0.5018637 -0.17702235
000100 29 52 9f be 23 19 b2 3e bc 5e e5 be bf 6d 3d be
       -0.3111737 0.34784803 -0.4479884 -0.18498896
000110 24 db fd 3e f3 8d b7 be 53 98 dd 3d 9a 67 f0 3e
       0.49581254 -0.35850486 0.10820069 0.46954042
000120 4c 46 76 be a8 80 95 bd 4e 61 13 bf 0e 88 e8 3e
       -0.24050254 -0.0729993 -0.5757035 0.454163
000130 36 06 84 3d 5f b9 17 bf ee 6e 12 3f 80 98 e8 3e
       0.06446497 -0.5926723 0.57200515 0.45428848
000140 ed b4 13 3e 7e 8c 65 be 4d 5d a2 3d 12 b1 2f 3e
       0.14424486 -0.22416875 0.07927952 0.1715739
000150 dc d6 22 3e 64 a8 e0 be 89 c7 ed 3e 27 d5 1d bc
       0.15902275 -0.43878472 0.46441296 -0.009633339
000160 2f f4 e0 bb fc d4 ed 3d ea 78 aa 3c ac 23 45 3e
       -0.0068650465 0.11612889 0.02080961 0.19251889
000170 d1 bc ea bd 11 88 59 3e 93 90 18 bf 32 c4 3d 3e
       -0.11461795 0.21243311 -0.595956 0.18531874
000180 28 51 ad bd 0d fe 82 be 87 0b 64 3e 36 0f 44 3d
       -0.08462745 -0.2558445 0.22270022 0.04786607
000190 ae fc de 3d e8 d9 ac be 47 63 f5 3e 1f 80 be be
       0.108880386 -0.3376 0.47927305 -0.37207124
0001a0 95 9d 05 be b2 13 94 3e 08 a8 cd bd 11 6c 3d be
       -0.13048394 0.28921276 -0.10041815 -0.18498255
0001b0 d4 40 97 3d 8c 1c 84 3e d5 d6 32 3e ba 49 4f bd
       0.07385412 0.2580303 0.17464764 -0.05060742
0001c0 8b 9e c2 bb f9 74 71 3d ea 0b aa be 76 8c 61 be
       -0.00593931 0.058949444 -0.33212215 -0.22026238
0001d0 85 92 05 be fe 1c ca be 0a 2e 02 bf ef 87 a1 be
       -0.13044174 -0.39475244 -0.508515 -0.31549022
0001e0 0f 48 09 3e 40 dd 31 bc dc 0c e4 be 21 e8 2f 3f
       0.13406394 -0.010855973 -0.4454106 0.68713576
0001f0 a7 b7 1d 3f e3 74 df 3e af af 95 3c bd d2 0c 3f
       0.61608356 0.43643865 0.018272249 0.5500906
000200 e7 ee 44 3e 9a d3 51 3e b3 69 01 3c d2 6c c7 3d
       0.19231759 0.20490876 0.007898736 0.09737553
000210 ab 3a f3 be e9 88 18 bf 25 bb 94 bc 28 3f 98 be
       -0.47505698 -0.5958391 -0.018155644 -0.29735684
000220 38 fe 94 be e7 48 eb be 86 98 5e 3b 4e 36 05 be
       -0.29100204 -0.45954058 0.0033965423 -0.13008997
000230 43 88 e5 be 1e b4 41 3f 57 aa 64 3f d0 07 6c bd
       -0.44830522 0.7566546 0.8932242 -0.057624638
000240 05 36 65 3d e9 78 67 3e dc fa 10 3f a3 2c a4 be
       0.05595972 0.22604717 0.5663278 -0.32065305
000250 1a 24 71 3d b8 39 e5 3e 96 5c 29 bf 42 13 9e be
       0.05887232 0.44770598 -0.661569 -0.30874068
000260 09 ba a8 3d 07 2b 5d 3e bc 10 4d 3d 54 df 99 bd
       0.082386084 0.21598445 0.050064787 -0.075132996
000270 11 b5 bf 3e 35 99 04 3e 3b f6 31 3d ce 3c 3c be
       0.3744283 0.12949069 0.043447714 -0.1838257
000280 77 a5 20 bf 03 d6 0a bd e7 7e 15 3e 97 59 26 bd
       -0.6275248 -0.033895504 0.1459919 -0.040612783
000290 4f 81 15 3d 3b c2 39 be d4 7d ee 3d 6b 73 f9 bd
       0.03650027 -0.181405 0.116450936 -0.12180217
0002a0 b9 ec d1 3c 26 62 01 be 74 b0 df 3d df 20 05 3d
       0.025625573 -0.12635097 0.10922328 0.03250205
0002b0 bc 16 c8 bd a9 0e 48 3d 99 b6 06 be 7c 7a 25 3e
       -0.09769961 0.048842106 -0.13155593 0.16160005
0002c0 5c c8 bc bc 4b 6f d7 3d f6 d3 1b be 8e ea 72 bd
       -0.023044758 0.10519274 -0.15217575 -0.05930572
0002d0 0a 29 85 3e 3f 02 b1 bd eb a1 d1 3d 59 5a 89 bc
       0.26007873 -0.086430065 0.102359615 -0.016766714
0002e0 34 18 50 3e da 03 91 bd d6 36 09 3d 26 2b 59 be
       0.20321733 -0.07080813 0.03349956 -0.21207866
0002f0 b5 ba 9d 3e 7c 14 38 be 4c f8 34 be f0 b9 00 be
       0.3080651 -0.17976564 -0.17672843 -0.1257093
000300 0a 4b 3b 3e f4 81 a5 be 79 a0 46 3d 29 8e 83 bc
       0.18290344 -0.3232571 0.048492882 -0.016058998
000310 47 69 81 be a8 97 96 bd 44 82 34 3e f3 c6 c7 3e
       -0.25275633 -0.07353145 0.17627817 0.39018974
000320 6e 75 d0 3d f2 5d be 3e bb 69 17 3e 93 f2 42 3d
       0.10178648 0.3718105 0.14786427 0.047594618
000330 ac 85 8f 3e a0 6c 45 3e 5c 21 d1 3e a9 2b 53 be
       0.2803167 0.19279718 0.40845764 -0.20622124
000340 53 9f ec bd 86 02 e5 bd 92 8b 4a bb 37 f7 d9 bd
       -0.11553826 -0.11182122 -0.0030905944 -0.106428556
000350 da ed 05 be 79 78 80 be 4c ba 83 be 44 c4 3b be
       -0.13079014 -0.25091913 -0.2572807 -0.18336588
000360 3d 68 25 be a0 9a ce bd 02 7e 09 3e cb e0 13 bf
       -0.16153045 -0.10088086 0.13426974 -0.5776488
000370 94 8c 1d be e5 3b 27 3f 30 a4 f2 bd e2 ed 58 3d
       -0.15385658 0.65325767 -0.118477225 0.052961238
000380 ac f0 4d 3e 29 43 ce 3d 76 86 eb 3c 84 da 99 3d
       0.2011134 0.100714035 0.02875064 0.07512382
000390 24 91 df be ac ba 1f 3d a1 14 ab 3e 47 59 d2 3d
       -0.4366542 0.038996384 0.33414176 0.102709346
0003a0 7e 8d db 3c 9a 21 94 be 9c cb 7a be 99 7f 71 be
       0.026800867 -0.28931886 -0.24491733 -0.23583831
0003b0 2c bb 07 3f 1b e5 ce be 72 dc 97 bd 51 e4 b7 3e
       0.53019977 -0.4040917 -0.074150935 0.3591638
0003c0 ec 4e 53 be 0d a5 97 3e 93 bf c6 3d 57 5e 0e 3e
       -0.20635575 0.2961811 0.09704509 0.13903175
0003d0 42 f1 4a 3d 6c bd 01 3f 56 2d 45 be 56 c0 9d be
       0.049546488 0.5067966 -0.19255576 -0.30810803
0003e0 72 ab c0 3b 62 c2 62 3d 18 b5 23 3d ef 44 5a bd
       0.005879813 0.05536116 0.039967626 -0.053288396
0003f0 d0 43 3d 3d 6f 32 87 3e 3f 46 94 3e 9c 6f 19 be
       0.04620725 0.26405665 0.28959844 -0.14983982

module.refine_spn.0.2.weight f4 [16, 16, 3, 3]
000000 36 2c ee bd db a3 a2 3c 92 d2 17 bc 2e ff be 3d
       -0.11629526 0.019853523 -0.0092665125 0.093260154
000010 7b 83 92 3d c5 2d 03 3e 63 49 00 bf d1 32 eb bd
       0.07153984 0.12810428 -0.5011198 -0.11484302
000020 29 bd 4d be c4 0b 53 3e c3 62 c3 3d 8d b3 08 3e
       -0.2009169 0.20609957 0.09540322 0.13349743
000030 89 34 29 3e 62 22 1d bd c3 7f 10 3e 8e 42 c5 3d
       0.16523947 -0.038362868 0.14111237 0.09631835
000040 e1 f7 74 bc 50 6e 7b 3d 1b f1 95 3f 3a 81 7e 3f
       -0.014951677 0.0613845 1.1714205 0.99415934
000050 c8 aa 2a 3e c8 8b 28 3f 2e 61 57 3f 06 d9 b8 3e
       0.1666671 0.6583829 0.8413266 0.36103076
000060 47 f1 96 be a2 72 ef bd 00 6f ef 3d 65 07 b0 bc
       -0.29480955 -0.11691786 0.116910934 -0.021487901
000070 9d 0c 2a 3d f1 c4 bf bd ab 86 80 bb ec e6 a2 3d
       0.041515935 -0.093637355 -0.0039223037 0.07954201
000080 01 5b 3b bd 46 f8 02 be 0c c4 7b bd d3 eb 04 be
       -0.045741085 -0.12790021 -0.06146626 -0.12980585
000090 3b 33 86 3f 6f 76 50 3f 8e c7 49 3f 10 70 d2 3e
       1.0484384 0.81430715 0.7882012 0.41101122
0000a0 0c af 33 3f fa a3 b4 3e d2 f1 af be 54 38 c9 bd
       0.70188975 0.35281354 -0.34364182 -0.09825197
0000b0 51 94 8a be 97 9d 42 3f 87 aa 54 3f b3 7d a9 3e
       -0.2706628 0.76021713 0.83072704 0.33103713
0000c0 57 28 2a 3e f6 e5 07 3f 4e 79 f1 3d 0d c6 6e be
       0.16616951 0.5308527 0.11790715 -0.23317738
0000d0 02 e3 22 be 90 4c 1d be 6c 52 20 be 28 b5 03 bd
       -0.15906909 -0.15361238 -0.15656441 -0.032155186
0000e0 42 18 bd 3c e7 d3 ef bd c2 f4 1e bd 7a ff 03 3e
       0.023082856 -0.11710339 -0.038807638 0.12890425
0000f0 5a 2f 88 be 80 1c 38 be ad 26 72 3c 2a 57 b0 be
       -0.26598626 -0.17979622 0.014779729 -0.344415
000100 90 4b 32 be f8 f3 36 bc ac 38 27 be d6 1f 56 bd
       -0.17411637 -0.011166565 -0.16330212 -0.052276455
000110 fb 63 bd bd 8b 75 35 3e 25 80 96 3e c3 ec 44 3c
       -0.092475854 0.1772062 0.29394642 0.012019339
000120 f4 0c 60 3e e9 76 4c 3e 09 6c 03 3e 9d 87 19 3d
       0.21879941 0.19967236 0.12834181 0.037482847
000130 1f d7 88 3e 99 8b 89 bc 48 ce f2 bd 25 4e 11 3d
       0.26726624 -0.016790198 -0.11855751 0.035474915
000140 44 40 dd bd 44 81 5f 3d 72 d4 1f bd fa 09 24 be
       -0.10803273 0.054566637 -0.039020963 -0.16019431
000150 74 15 4c bb 88 18 58 bd 80 a3 0e bd 46 83 93 bd
       -0.0031140717 -0.05275777 -0.034823895 -0.07202773
000160 58 fe 03 bd 91 93 e8 bb 2a f8 b3 be 40 ce d0 bd
       -0.032224983 -0.0070976694 -0.35150272 -0.10195589
000170 8c 03 90 be 4f 1a 64 be 29 33 04 be 1f b9 2e 3d
       -0.28127706 -0.22275661 -0.12910141 0.042657014
000180 0b 64 87 bd a8 73 29 3e 8e d9 be 3d 7e fb 59 3f
       -0.066108786 0.16548026 0.09318839 0.8514937
000190 34 b5 01 3f 9d 39 19 be ea 3d af 3e c5 59 be 3e
       0.5066712 -0.14963384 0.34226924 0.37177864
0001a0 47 6e 4c 3e ff 32 74 3e 86 ab 0d be 1f 1b d1 be
       0.19963942 0.23847578 -0.13834962 -0.40841004
0001b0 0f d5 fb bd 07 22 a3 bd 73 46 3c be 33 01 4c bd
       -0.12296497 -0.079654746 -0.18386249 -0.04980583
0001c0 7f 5c 51 3e f5 56 60 3d b7 05 ce be 7d bd af 3d
       0.2044544 0.05477043 -0.40238735 0.08581064
0001d0 e5 18 d5 3d 68 35 6c 3e b6 b2 02 3e 59 4a 3b 3e
       0.10405139 0.23067248 0.12763485 0.1829008
0001e0 7c 29 b1 3e 02 1e 96 bd fe c8 47 be 52 ab 60 be
       0.34601963 -0.07329942 -0.19510266 -0.21940354
0001f0 4c 3f d1 be 89 ce d0 bd bf bf 37 3f f3 57 3e 3f
       -0.40868604 -0.101956435 0.71776956 0.7435295
000200 00 61 c2 3e 21 42 68 3f 8d 62 51 3f 00 af 83 bc
       0.3796463 0.90725905 0.81791 -0.016074657
000210 f4 ff 5f be b2 26 b3 be ce 45 ad be 52 e0 24 bf
       -0.21874982 -0.3499046 -0.3384232 -0.64404786
000220 d8 e5 a1 be 0e d9 f1 3d 92 0b bf be b0 e8 17 be
       -0.3162067 0.11808978 -0.37313515 -0.14834857
000230 91 4e 81 3e dc ec 04 be ff 98 49 3e e4 ec 81 3e
       0.25255254 -0.1298098 0.1968727 0.25376046
000240 74 5b 5c be 10 c8 2e 3e 80 c3 82 3e a0 d3 43 be
       -0.21519262 0.17068505 0.2553978 -0.19123697
000250 7b 8f 98 3e 3a f7 22 3e 8d 4e 12 be d4 7b 93 3e
       0.29796967 0.15914622 -0.14287777 0.2880541
000260 f2 3c ad 3e a0 92 0a be 75 8f 22 be 4a 08 8c bd
       0.3383556 -0.13532495 -0.15875037 -0.068375185
000270 56 c9 ae be b5 3c 5f be 83 9b 54 bd 2f e5 88 be
       -0.34137982 -0.21800502 -0.05190612 -0.26737353
000280 ab 29 62 bd e0 63 94 3d 2b c6 d2 be 8e b7 8c 3e
       -0.05521552 0.07245612 -0.41166815 0.2748379
000290 71 b8 5d 3f 12 9b eb be 3c 5d 6d 3e da e4 1d 3f
       0.8660956 -0.46016747 0.23180097 0.61677325
0002a0 ef 74 32 bd c4 5a 9b 3e 26 1e a8 3e ec 34 72 bd
       -0.043568548 0.30342686 0.328355 -0.0591325
0002b0 90 d5 8f 3e a3 fc 95 3e 13 67 a1 3d c9 ea c1 3e
       0.28092623 0.2929431 0.07880988 0.3787444
0002c0 45 1e 47 3e 65 3a e6 bd 17 d2 4f 3e 82 22 9b 3e
       0.1944514 -0.112416066 0.20294987 0.30299765
0002d0 60 60 d0 be 92 8e 38 3e 39 e8 52 3f fe dd c2 be
       -0.40698528 0.18023136 0.82385594 -0.38059992
0002e0 c6 42 8a 3c be 50 77 3e 75 b9 5a be 34 16 87 bd
       0.016877543 0.24151894 -0.21359809 -0.06596032
0002f0 3d 17 0e 3f d6 53 84 bf 67 f9 ca 3e 78 19 0a 3f
       0.5550421 -1.0338085 0.39643404 0.5394511
000300 5b 91 18 bf 91 67 85 3c b0 ae 3d bd 0d 17 d9 be
       -0.59596795 0.016284736 -0.046309173 -0.424004
000310 c6 80 23 bc cd c8 f7 3e d5 0b 07 3e 58 67 d9 3c
       -0.009979432 0.48395386 0.13188107 0.026538536
000320 fc d2 55 3e ba 15 47 be cc b5 48 bb 5b 4a 96 bc
       0.20881265 -0.19441882 -0.0030625938 -0.018346002
000330 f3 ec 63 be 5b 3e 8e be f5 c3 4a be 6c a6 51 be
       -0.22258358 -0.27781948 -0.19801314 -0.20473641
000340 f2 0c aa be 15 ab 58 be 7f 99 b3 be 5b 9a 88 3d
       -0.33213 -0.21159013 -0.35078046 0.06670066
000350 72 b5 a8 be fb 2d e3 3d 4d cd 18 3e 11 c6 bc 3e
       -0.32950932 0.110927545 0.14922066 0.36869863
000360 29 f2 af 3c 31 10 c7 3e 8a 5d 28 3f 0c 2d 27 be
       0.021477776 0.3887954 0.6576773 -0.16325778
000370 97 99 d3 bd 69 f3 11 bd e8 4d 40 be 43 ee aa 3e
       -0.10332029 -0.035632525 -0.18779719 0.33384904
000380 65 89 a9 3e 31 17 b4 be b5 d2 45 3b 3e 51 3d 3a
       0.33112636 -0.35173944 0.0030185406 0.0007221884
000390 bc 39 24 be 88 93 b3 3d d2 c7 e6 bd 5a 03 77 3d
       -0.16037649 0.08768374 -0.112685814 0.06030593
0003a0 3d 28 5c 3e 8d 73 0b be 23 35 db bd d5 a5 54 be
       0.21499725 -0.13618298 -0.107034944 -0.20766385
0003b0 c0 df 00 bd db a9 d6 3c 9a e6 8b bd d0 34 0b 3d
       -0.031463385 0.02620404 -0.06831093 0.033985913
0003c0 22 0a 39 bd 1c 05 b5 be 26 49 41 be 99 0e 3c be
       -0.04517568 -0.3535546 -0.1887556 -0.18364944
0003d0 70 d1 03 3f ff de 42 3f 57 67 9f bd 11 43 9e 3e
       0.5149145 0.76121515 -0.077833824 0.30910543
0003e0 49 a3 0e 3f 50 6b bd bd 41 a8 ff 3d 59 7c 3c 3f
       0.55717903 -0.09248984 0.12483264 0.7362724
0003f0 3d 22 9f be b0 7a 7c bd 85 f6 a4 3e 81 68 07 3e
       -0.3108081 -0.06164044 0.3221933 0.13223459

module.refine_spn.0.4.weight f4 [16, 16, 3, 3]
000000 d2 cc e0 bd 72 21 cd be 01 6e 53 be 4e 3d ad 3e
       -0.109765664 -0.4006458 -0.20647432 0.33835834
000010 88 f0 8d be 7d c4 a5 be 2c 1b 6d 3e 6d eb f5 3d
       -0.27722573 -0.3237647 0.23154896 0.120077945
000020 c0 f5 55 3e e1 60 da 3d 11 58 d1 3e 29 a3 bc bc
       0.20894527 0.106630094 0.40887502 -0.02302702
000030 8f 2c 6e 3d 0f d9 29 3d b7 b3 d0 bc 4d 5f 8d 3e
       0.058147963 0.04146677 -0.02547632 0.2761177
000040 f7 35 cb 39 e6 cc 29 3e bb 4d 78 3e cf 61 3d 3e
       0.00038759384 0.16582069 0.24248402 0.18494342
000050 63 67 07 3e 05 7b 2c 3e 1d 62 16 3d 0e ef 5c 3e
       0.13223033 0.16843803 0.036714662 0.21575567
000060 fd b3 d4 3d 2b 45 42 3e f5 76 0a be f0 33 59 bf
       0.103858925 0.18971698 -0.13521941 -0.84844875
000070 5e 54 06 bf 7f 0f b1 be f8 c9 74 3d 95 ff 3a be
       -0.52472484 -0.34582135 0.059762925 -0.1826156
000080 1d b0 2a 3d 1a 32 4e be ae 95 ef bd 83 56 8c 3e
       0.04167186 -0.201363 -0.11698471 0.27409753
000090 1d 46 35 3d d2 48 12 3f 9f 88 44 3f 6f b7 b5 be
       0.04425632 0.57142365 0.7677097 -0.3549151
0000a0 f3 73 e1 3d d6 7b e3 3b fb 5d 8a be 40 29 81 be
       0.11008444 0.0069422526 -0.27024826 -0.25226784
0000b0 b5 4c d2 be 53 29 d3 be 61 30 cb be 27 81 f1 be
       -0.41074148 -0.41242465 -0.39685348 -0.47168848
0000c0 63 a6 ab be eb 2f 33 be 8d 36 88 be 2c ea d1 bc
       -0.3352538 -0.17498748 -0.2660412 -0.025624357
0000d0 13 c0 7d be 6c 47 ad bc 44 e7 f2 3d c7 b1 3a 3e
       -0.24780302 -0.02115222 0.11860517 0.18231879
0000e0 30 c3 20 3e 3e 8d 1a bc 0c b3 25 be d7 ae df bc
       0.15699458 -0.009433089 -0.16181582 -0.02730505
0000f0 da 7a b1 3e 76 24 90 bb 9d 6b 83 3d 9f 2d 01 3e
       0.3466404 -0.0043988777 0.0641701 0.1261506
000100 24 b3 40 3e 52 17 ff 3d 33 a4 d6 bd 0e 20 c4 3e
       0.18818337 0.1245562 -0.10480537 0.38305706
000110 7e e3 94 3d 3a 83 93 be 01 04 62 be 62 e9 85 3d
       0.07269953 -0.28811055 -0.2207184 0.06538655
000120 01 4c ac bc d1 4f 74 be 61 f9 b7 bd df 57 cd 3e
       -0.021032335 -0.23858573 -0.08983112 0.40106103
000130 7f 75 da bb c6 2a b5 bc 12 45 03 3e ec 2b 3d bd
       -0.0066668387 -0.022115123 0.12819317 -0.046184465
000140 53 2d 15 3e 25 66 92 be 6f 2c 13 bc 5c 74 35 be
       0.14568071 -0.28593555 -0.008982762 -0.17720169
000150 ab ca 18 bd 98 8f 21 be 66 28 0c be f9 08 76 bd
       -0.037302654 -0.15777433 -0.13687286 -0.06006715
000160 7e ce 3e 3d 5c 19 e6 3d 66 a5 75 3c de ab 19 3e
       0.046583645 0.11235306 0.014993047 0.15006968
000170 b2 f5 fa 3d 9f fe 9a bd d7 bf 2f 3e 51 ab 35 3b
       0.12253894 -0.07568096 0.17163025 0.002772052
000180 76 bf 95 be 3c a4 cd be 22 80 07 be 5f 6d 9c 3e
       -0.29247636 -0.40164363 -0.13232473 0.30552194
000190 d5 3c 19 bd 13 3c a1 3d 70 41 fa 3d 48 c7 8e bb
       -0.03741153 0.078727864 0.122195125 -0.0043572523
0001a0 f7 b1 70 3d 8c b7 94 be cb 5d b4 bd 83 57 82 be
       0.05876347 -0.29046285 -0.08806952 -0.2545739
0001b0 b6 2c 54 3c b1 a2 14 3e 2a 67 de 3e ce 53 5e be
       0.012950113 0.14515187 0.43438083 -0.21711656
0001c0 38 3b f6 3d 60 5a f6 3c 53 a0 9c be 64 81 95 be
       0.12023014 0.030072391 -0.30591068 -0.2920028
0001d0 35 48 d3 be ee ce 23 3d 91 13 35 bf a2 cf 0d 3d
       -0.41266027 0.039992265 -0.7073298 0.034621842
0001e0 84 62 c0 3e d5 61 e8 bd ad ea 1d be f3 d6 93 3e
       0.3757516 -0.11346785 -0.15421553 0.2887493
0001f0 4f 7c 1b 3e 9b 6a 78 3e 7a 5f 8e bc 77 0b 35 be
       0.15184139 0.24259417 -0.017379511 -0.17680155
000200 1d fb 49 bf 6a 74 27 3e f6 42 08 3e a6 bd 24 bd
       -0.78898793 0.16353002 0.13306794 -0.040219925
000210 2e ac 1e 3d 50 6c b5 3d b9 a8 5a 3e 51 9b b7 be
       0.038738422 0.088585496 0.21353425 -0.35860685
000220 25 d0 d3 be 7c 45 c6 be fe a9 6b be 31 89 4f be
       -0.4136974 -0.38724887 -0.23014066 -0.20267178
000230 e2 85 05 be 87 04 52 3d 62 5c 48 be 77 23 b1 be
       -0.13039353 0.05127385 -0.19566491 -0.3459737
000240 50 85 ac 3e ae b4 89 3e 79 01 c4 3e 64 9a 76 be
       0.3369546 0.2689566 0.38282374 -0.24082333
000250 90 36 16 be cb 33 83 3e 98 93 94 bd 5b 3f f1 be
       -0.14669251 0.25625452 -0.07254714 -0.4711865
000260 52 64 4a 3d bf 81 cb be 1e 07 be 3d 2c 26 ea 3d
       0.04941208 -0.39747426 0.09278701 0.11433062
000270 a5 ed 00 bf 00 50 b8 3d 21 7c 21 3e 75 f6 04 bf
       -0.50362617 0.08999634 0.15770008 -0.51938564
000280 32 7f 36 3e 7d 85 e1 3d f9 ac 7c be d2 46 1f be
       0.17821959 0.11011789 -0.24675359 -0.1555436
000290 45 04 a6 be 42 72 8f be e0 27 d0 3d 25 24 a4 3b
       -0.32425132 -0.2801686 0.101638556 0.0050091916
0002a0 ed e3 f2 3d 29 ba 2f 3e 94 a8 8f 3d 1e 89 c6 3e
       0.1185988 0.17160858 0.070145756 0.38776487
0002b0 62 c2 06 be e6 0e ee 3d 85 fe 33 be 9c e1 00 3d
       -0.13160089 0.116239354 -0.1757756 0.031465158
0002c0 42 29 cf be f8 1b f5 3e b0 aa 08 3d 06 3c 9d be
       -0.40461165 0.478729 0.033365905 -0.30709857
0002d0 7d 8f b0 be 42 6d 04 bf 98 fd 4d bf bb 45 d6 3e
       -0.34484473 -0.51729214 -0.8046508 0.41850075
0002e0 cc e3 ba bd de c0 bd be cd be 5d 3f 52 25 39 3e
       -0.0912548 -0.37061208 0.86619264 0.18080643
0002f0 46 fc fe be 78 bb cd be 42 9d 42 be 56 41 15 bf
       -0.49801844 -0.4018209 -0.19005302 -0.5830282
000300 eb 04 39 bf 05 b7 44 be 19 d0 53 bf f2 e3 93 bf
       -0.7227313 -0.19210441 -0.82739407 -1.1553938
000310 e0 b6 00 bf 71 e0 40 bf aa e3 75 3e ca ff 8f 3e
       -0.50279045 -0.7534247 0.24012628 0.2812484
000320 58 35 d2 3d f1 80 0c 3e 2c 25 dd 3d 70 6a c3 be
       0.10264081 0.13721062 0.107981056 -0.38167143
000330 b6 40 f7 be 0d 5a 07 be bb 71 05 3f 41 f0 d2 be
       -0.48291558 -0.13217945 0.52126664 -0.41198924
000340 99 eb 22 bf d8 3f 3a bf 75 ed 71 3e 59 26 9d bd
       -0.63640743 -0.7275367 0.23625739 -0.0767333
000350 03 a2 a4 be 67 59 42 3f 5a 5f bf 3e 0a 98 80 bd
       -0.32154855 0.7591767 0.37377435 -0.06278999
000360 5e 36 55 be 5c c5 83 be 4b 54 63 3e 56 12 b0 3e
       -0.2082152 -0.2573651 0.22200124 0.3438899
000370 70 8d 12 be b5 46 e2 3d b0 ee 20 be 1c 22 a1 bd
       -0.14311767 0.110486425 -0.15716052 -0.07867834
000380 09 03 82 3e 92 54 97 3e 22 d2 dc 3d 37 ee 9b 3e
       0.2539294 0.2955671 0.10782267 0.3045518
000390 03 8f 55 be d7 41 f1 3d 4d d0 c5 bd 59 9d 96 3a
       -0.20855336 0.11780136 -0.09658871 0.0011490985
0003a0 08 a6 5f 3e 34 33 d3 bd c8 59 1d be 09 3c 08 bd
       0.2184068 -0.103125006 -0.1536628 -0.03326038
0003b0 a6 e2 f9 bd 2c a8 55 3e 2e c7 18 be 5e 20 3f bd
       -0.12201433 0.20864934 -0.14919731 -0.046661727
0003c0 3b f7 ff 3e 9f 10 39 3e 90 1b 14 3e 31 9d 02 be
       0.4999331 0.18072747 0.1446364 -0.12755276
0003d0 80 e7 3f be db 0d b2 bd bd 0f 09 3e 1b 9c 9f bb
       -0.18740654 -0.08694049 0.1338491 -0.004870904
0003e0 a7 ac 7a bd d8 7f 93 3d 7b 40 38 3d 1b 5a 79 3e
       -0.06119981 0.07202119 0.04498337 0.24350779
0003f0 1d 53 b2 bd 9c 4e 63 be 95 ea a6 bf 06 9a 3a bb
       -0.08707259 -0.22197956 -1.3040339 -0.0028473153

module.refine_spn.0.6.weight f4 [24, 16, 3, 3]
000000 ab e0 0e 37 01 6e ad be 27 f3 4e be c0 31 68 3e
       8.516169e-06 -0.3387299 -0.20209943 0.22675228
000010 d7 e5 dd 3e d8 15 9b bd a7 86 1a be 7a 44 e3 3d
       0.43339416 -0.07572526 -0.15090428 0.11097045
000020 a4 6d ae bd 9b a9 de bc ad 56 0b 3e a3 c2 3a 3e
       -0.08517006 -0.027180484 0.13607283 0.1823831
000030 24 c7 20 3e 76 b2 fd 3e dd 3f dc 3e 3a ad 02 be
       0.15700966 0.49550217 0.43017474 -0.12761393
000040 4c 8d 4c 3e 0d 5b af 3e 38 c6 29 3e a0 16 39 3e
       0.19975775 0.34249154 0.1657952 0.18075037
000050 ed c9 a4 3d 54 0e 47 be a5 e4 81 be cb 91 8b be
       0.08046327 -0.1943906 -0.25369754 -0.2725967
000060 b4 03 d9 3e 01 f6 db 3e 5c 42 50 3f f1 2e 52 3e
       0.42385638 0.42961124 0.81351256 0.20525719
000070 1c 3f 67 3e e2 f3 76 be a4 6a c0 3e dc 75 6d 3e
       0.22582668 -0.24116471 0.3758136 0.23189491
000080 b9 25 11 3e 61 10 1f 3e a7 5e 92 bd 42 f9 ff bd
       0.14174546 0.15533592 -0.0714696 -0.12498714
000090 3c 4e a9 be be 43 98 bd 1e 0f 9d bd e5 31 71 3d
       -0.330675 -0.07434796 -0.07668899 0.058885474
0000a0 78 30 80 3d 8e 7c 01 be 86 94 49 be cd 34 d3 bb
       0.06259245 -0.1264517 -0.19685563 -0.0064455033
0000b0 6a 5c c6 3d d2 e5 23 be e9 83 e2 bd c7 99 b0 bd
       0.09685595 -0.16005638 -0.11060316 -0.08623081
0000c0 08 d9 f7 bd 50 83 62 3e 0e 00 3b bd 1d 1e ac 3d
       -0.12101942 0.22120404 -0.04565435 0.08404181
0000d0 9a f5 2a 3e 61 fb cb bd 91 fe f7 3e 68 74 ed 3e
       0.16695252 -0.09960056 0.48436406 0.46377873
0000e0 36 4b d5 3c 66 9c 0c 3c 6f 66 1e be aa dc 14 3e
       0.02603684 0.00858221 -0.15468763 0.14537302
0000f0 68 ab 24 3e 07 bf b5 3d ac c3 b1 3e b7 fd 08 3e
       0.16081011 0.08874326 0.34719598 0.13378035
000100 03 b1 8a bd b3 29 89 3c 7d 6d 8b 3d df 6a 8d 3c
       -0.067720436 0.016743517 0.068079926 0.017262874
000110 f5 0b 82 bd c7 68 b4 3e 0e 18 9d 3b 01 a7 45 3e
       -0.06349937 0.3523619 0.0047941273 0.19301988
000120 02 7f d1 3f 7a 83 03 3e f7 30 18 bf e7 8f 6a 3f
       1.6366885 0.12843123 -0.59449714 0.9162583
000130 35 d2 35 3f 2a fc 13 3d 8e 15 73 3e b7 50 e6 be
       0.71023875 0.036129154 0.23738691 -0.44983456
000140 3a 6b c1 be be 6c f7 3d f1 2a b4 bd b1 61 b2 3d
       -0.3777712 0.12081288 -0.08797253 0.087100394
000150 3b 94 a7 3e 28 f8 6b bd 02 8f 80 bd 0c 16 8d 3d
       0.32730278 -0.057609707 -0.062772766 0.06888971
000160 71 01 70 bb 1b cc 80 3d 29 73 1a bc ef f7 99 be
       -0.0036621953 0.0628893 -0.00942687 -0.3007197
000170 a3 f6 07 3e 19 69 81 3e 0a ca a5 bd 7e ce 00 3c
       0.13277678 0.25275496 -0.080951765 0.007861732
000180 a2 28 8a 3d cc 98 c5 bd 3e 99 44 3d e8 77 1e bd
       0.06746031 -0.09648284 0.047997706 -0.03868857
000190 e6 6d 56 3e 1d 82 f1 bd 74 86 18 be cf 8f 83 3d
       0.2094036 -0.11792395 -0.1489504 0.06423914
0001a0 78 b7 91 be 1e 23 70 bd 66 a8 c4 3d 9c d0 3c be
       -0.28460288 -0.05862724 0.09602432 -0.18438953
0001b0 5c e1 98 3e ba e4 5a 3f 82 d9 c8 3e da 1e 46 3e
       0.29859436 0.8550526 0.39228445 0.19347706
0001c0 e2 e0 08 3f 1a 39 47 be 33 9d 32 3e 39 56 aa 3e
       0.53468144 -0.19455376 0.17442779 0.33268908
0001d0 83 4a a6 bd 10 dd d7 3e e5 27 fc 3d f7 9c ea 3d
       -0.08119681 0.42160845 0.12312297 0.1145572
0001e0 97 c1 88 3d 7b d8 3d 3e 4a da 07 3e 05 16 cb bd
       0.06677549 0.18539612 0.13266864 -0.09916309
0001f0 74 08 f0 bc 8d 91 56 3d 1a 91 2b 3f 18 84 c4 3e
       -0.029300906 0.0523849 0.6701828 0.3838203
000200 46 c3 be 3d a7 ad 37 3e 6d 61 e7 3d 74 89 a3 3d
       0.09314589 0.17937337 0.11297879 0.079852015
000210 52 b9 36 3d c9 df 42 3e d0 45 d5 bd 52 79 d7 bd
       0.04461033 0.1903068 -0.10413706 -0.10521187
000220 9d 28 be 3e b3 7e a0 be 42 0a 9e be d2 4a e0 3e
       0.3714036 -0.31346664 -0.308672 0.43807083
000230 43 98 2c bd 3d 78 c4 bd 0b 34 db 3c 2e d7 2c bd
       -0.042137396 -0.09593246 0.026758214 -0.0421974
000240 19 ea ef bc f2 67 db 3c 9c e5 a2 bd fc 50 dc bd
       -0.029286431 0.026782963 -0.07953951 -0.10757634
000250 6c 41 66 be 72 66 24 3c d3 94 f3 3d e2 0f 6c be
       -0.22485894 0.0100341905 0.1189362 -0.23052934
000260 01 f1 88 3e ad 2e 9d 3c ce d4 8b 3d ee 85 91 3d
       0.2674637 0.019187296 0.06827699 0.07105623
000270 72 bc 06 3e 1e ed 0a bd 6e 86 fc 3d b4 12 a0 be
       0.13157824 -0.03391754 0.12330328 -0.3126427
000280 bb e7 61 3e 11 3f 1b be 13 38 87 bc ce 36 f7 3c
       0.22061054 -0.15160777 -0.01650623 0.0301775
000290 aa 45 81 3d a2 99 85 be aa 8f 1d be 3d 7f 5e be
       0.063121155 -0.26093775 -0.15386835 -0.21728225
0002a0 79 2d db be 05 6c 5d be 86 b8 70 be 63 dd 64 3c
       -0.4280813 -0.21623237 -0.2350789 0.013968798
0002b0 0b c0 96 bd 89 35 6e 3d f9 65 21 3e 42 1a 14 3c
       -0.07360848 0.058156524 0.15761556 0.0090394635
0002c0 64 1b 87 3e 16 8b 9d 3e 57 8a bd bd 9a aa 96 3e
       0.26388085 0.30770177 -0.09254902 0.29427034
0002d0 65 e9 fb bb 22 73 8a 3d f4 1d 8d 3c e3 71 f1 3d
       -0.007687735 0.06760241 0.017226197 0.117893
0002e0 e7 44 de 3d 5e de 07 3e 73 ff cb 3e 9d 0a bb 3e
       0.10852986 0.1326842 0.3984333 0.36531535
0002f0 61 3c 72 3e 6b 89 c3 3d 54 04 c6 3c ee 05 a4 bc
       0.23655845 0.09547695 0.024171986 -0.020022359
000300 ca f7 53 3c e4 57 d5 3d 0d 85 a3 3d 63 5f 1c 3e
       0.0129374955 0.104171544 0.07984362 0.15270762
000310 6d 61 9c 3e a5 5a 6e 3e a2 04 84 3c fb 1a 90 3c
       0.3054308 0.23276766 0.01611549 0.01759099
000320 af 7a 3d 3d 14 7a 2f 3e b6 a0 58 3d d1 77 1f be
       0.04625958 0.17136413 0.05288764 -0.1557305
000330 e9 0a 33 be dc c9 bb be 44 04 a0 3d 36 ad 2d be
       -0.1748463 -0.36677444 0.078133136 -0.16960606
000340 43 40 8a 3e d6 07 ae 3d 7d 6e 11 be f1 40 3d 3d
       0.27002153 0.08497588 -0.14202304 0.04620451
000350 cf 58 54 bd da 27 54 be cb 04 13 3f 8c d9 f8 3c
       -0.051842507 -0.20718327 0.5742919 0.030377172
000360 45 a8 03 be 1c a1 1a 3c 2b f2 96 be bf 6b 02 3f
       -0.12857158 0.0094378255 -0.29481634 0.5094566
000370 72 7e ab 3c fd e6 1f be fe 92 ac 3e be 84 81 3e
       0.020934317 -0.15615459 0.33705896 0.25296587
000380 94 b3 08 bd 1c 9d 1b 3c 83 59 17 3d 4c 56 3a bc
       -0.033374384 0.009497907 0.0369506 -0.011373114
000390 54 03 fb 3d 82 19 a4 3d 73 8d bc 3d 8e a2 bd 3e
       0.12256494 0.08012678 0.09206667 0.37038082
0003a0 a3 8f 49 3e 1a 70 bd 3e 90 c0 98 bd 8c 27 a3 bc
       0.196837 0.3699959 -0.074586034 -0.019916318
0003b0 16 4b a8 ba 1a 6d c0 3c 6c c4 0a 3d 78 a7 03 bd
       -0.001283976 0.023489524 0.03387873 -0.032142133
0003c0 e2 59 96 3c 33 ed 00 be 31 99 b5 bc 16 f4 fe bb
       0.018353406 -0.12590484 -0.022167774 -0.007780562
0003d0 07 4a 79 3a 04 3b 0b bc ca 08 be 3d d0 03 bf 3c
       0.0009509627 -0.008497957 0.0927902 0.023317248
0003e0 7d 87 92 3d 06 86 74 3e d6 78 08 3d 2b e5 2f 3e
       0.071547486 0.23879251 0.033318363 0.17177264
0003f0 d3 a1 94 bd 78 e9 d2 bc 04 4a 65 bd 0a 1a fb bd
       -0.07257428 -0.025746092 -0.05597879 -0.12260826

module.refine_spn.1.weight f4 [8, 1, 3, 3]
000000 6a fe f0 bd 4c d6 b3 bc 1a 42 41 bc 1f d9 2b bd
       -0.11767276 -0.02195277 -0.011795545 -0.04195511
000010 71 72 f6 bd 85 84 a8 bd b5 e4 83 3e 25 a4 5f be
       -0.12033547 -0.08228401 0.25760427 -0.2183996
000020 ae 75 8f 3d 69 8f 10 be 0b 40 11 3b 19 59 1d bd
       0.070048675 -0.14117207 0.0022163417 -0.03841505
000030 33 11 48 3e a4 b8 ca be d6 07 0f 3d 66 71 30 3e
       0.19537811 -0.39593995 0.034919582 0.17230758
000040 a0 b4 0a 3e 59 57 12 3d 00 4f 02 be 87 b5 b3 bd
       0.13545465 0.035727832 -0.12725449 -0.08774858
000050 41 ae ee 3d b1 1d df bd ea f9 ca bd 6c b9 a1 3d
       0.1165433 -0.10894335 -0.099109486 0.078966945
000060 83 26 3b 3d ed b1 8d 3b 60 2f 75 3e f9 e9 c9 bc
       0.045691025 0.004324189 0.23943853 -0.0246477
000070 31 97 15 3d 5c 69 df 3d 45 2a 76 bd cc 6b 82 3e
       0.03652114 0.109087676 -0.060098905 0.25472867
000080 2e e7 e4 3d 50 ac 42 3d 00 69 74 3e 10 68 8b be
       0.111769065 0.04752761 0.2386818 -0.2722783
000090 e4 9e 4e bd d5 c2 1a be 63 8c 50 be a3 43 56 be
       -0.0504445 -0.15113385 -0.20366053 -0.20924239
0000a0 64 3c 51 3e 0e 32 68 be 3c 7e 2e 3e b9 d9 10 3d
       0.20433193 -0.22675344 0.17040342 0.035363887
0000b0 b1 7c 6a be ae a5 6e be 02 e6 0f be d6 b2 71 be
       -0.22899128 -0.2330539 -0.14052585 -0.23603377
0000c0 f0 e3 06 be e3 be 1c 3e b9 5f 4c 3c 91 3e 7e 3e
       -0.13172889 0.15307193 0.012473994 0.24828555
0000d0 d0 ce 8f 3e 02 54 4d be 1e 54 00 3e d7 73 50 3d
       0.28087473 -0.20051578 0.12532088 0.050891723
0000e0 de 38 1b 3e 2e ba ac 3b 18 41 57 3d 28 d0 b2 bd
       0.15158412 0.005271218 0.052552313 -0.08731109
0000f0 9f 44 5b be 20 37 35 be 83 36 b1 bd 0d 6b a2 bd
       -0.21412896 -0.1769681 -0.086529754 -0.079305746
000100 e5 ff 40 be b2 07 34 3e 4f 5f 05 3e 31 b5 d6 bd
       -0.18847616 0.1758106 0.13024639 -0.10483778
000110 eb 0b f1 3d e0 46 53 bd a2 42 b3 bd c2 bb 0f 3e
       0.11769851 -0.051581264 -0.087529436 0.14036468

module.refine_spn.2.weight f4 [1, 8, 3, 3]
000000 36 98 50 be 4e ea 22 bf 49 16 39 3f 3b 8a e0 3a
       -0.20370564 -0.6363877 0.7229963 0.001713104
000010 33 e9 8a be a2 2d 84 3d 21 51 40 3e 03 e9 fc be
       -0.27131042 0.06454016 0.18780948 -0.49396524
000020 fe d2 1c 3f 98 95 80 be b0 2e 47 3e 1b 58 3a 3f
       0.6125945 -0.2511413 0.19451404 0.7279069
000030 5c 97 88 3e da b5 3a bf be 3e 2c bd 5e 24 de 3e
       0.26677978 -0.72933733 -0.042052023 0.4338712
000040 77 e5 2c bf 6c 61 e8 3d 37 cb 0f bf e0 c6 cc be
       -0.67537636 0.11346707 -0.56169456 -0.3999548
000050 03 8b d5 3e 77 92 81 be 3b 2d e6 be fc d5 e5 3e
       0.4170762 -0.25307056 -0.44956383 0.4488982
000060 64 81 41 3e 61 87 9e 3e 3e 31 9d 3e 9d 6f bc be
       0.18897015 0.3096266 0.3070163 -0.36803904
000070 8a 27 70 3e 0c 8f ca bd d9 bb 7e bd 4d 8e 46 3f
       0.23452583 -0.09890565 -0.062190864 0.77560884
000080 9b 63 57 bd bd f0 45 3f f3 12 4f bf 78 7d 84 3e
       -0.052585226 0.7732046 -0.8088829 0.25876975
000090 f1 8e 90 3e 00 be 2d be c5 52 84 3d e9 33 d4 3e
       0.28234056 -0.1696701 0.064610995 0.41445854
0000a0 7c f4 01 bf 85 f3 1c 3e fc f7 7c bf cd c6 a2 be
       -0.5076368 0.1532727 -0.98815894 -0.31792298
0000b0 8d a8 a1 be 4a ab a1 be 6e d9 1d be bc 52 af be
       -0.31573907 -0.31575996 -0.15414974 -0.3424281
0000c0 f6 d2 11 3f 21 98 16 be 1d c6 3b 3e 28 83 4b 3f
       0.56962526 -0.1470647 0.18337293 0.79497004
0000d0 e7 e3 3c be 2b 46 02 3e 32 03 a6 3e 3a 82 d9 be
       -0.18446313 0.1272208 0.32424313 -0.42482167
0000e0 ae de cb be 96 88 cd be 1b 37 c7 3e 8b a9 cd bd
       -0.3981833 -0.4014327 0.3890923 -0.100421034
0000f0 4a 99 58 3a 46 35 61 3f a7 4b 28 3e 89 bb 2b be
       0.0008262588 0.87971914 0.16435109 -0.16770758
000100 5a 36 3e 3f 3e 89 37 3e 8a 40 ca 3e 03 ec 1d be
       0.74301684 0.17923447 0.39502364 -0.15422063
000110 98 5b dd be 3c bd 44 be 05 c0 4f be 1d 9d 01 be
       -0.43233943 -0.19212812 -0.20288093 -0.1265759

module.feature_extraction.block0.0.0.weight f4 [1, 3, 3, 3]
000000 fa 7e d0 be 27 fb d8 bd 18 ec 8f 3e 3a d8 c3 3d
       -0.40721875 -0.105947785 0.28109813 0.09562726
000010 9b 81 81 3e 3c 68 63 3e 8a fa 38 3f c9 04 2c 3f
       0.25294194 0.22207731 0.7225729 0.671948
000020 49 75 23 3e 7b b2 d5 3f 01 f8 8f 3f 6b 25 fe 3d
       0.1596271 1.6695093 1.124756 0.12409481
000030 91 fb 85 3e 74 73 18 3f a2 de 3a 3f 6a 9c 95 3e
       0.26168492 0.5955117 0.7299596 0.29220897
000040 d5 10 30 3f 8b 34 f1 3e c3 fa 37 bd 2f 09 1f 3e
       0.68775684 0.471104 -0.04491688 0.15530847
000050 84 cd d0 3d 70 cc da 3e 91 8c 2a 3f fe 9b 77 3e
       0.10195449 0.42734098 0.6662074 0.241806
000060 56 37 1a 3e f1 13 c6 bd 70 d3 48 3e
       0.15060171 -0.09671772 0.19611907

module.feature_extraction.block0.0.1.2.weight f4 [1, 1, 3, 3]
000000 34 4c 17 3f 15 ae 61 be dd 8c 01 3f ce e6 42 3f
       0.5910065 -0.22039063 0.50605565 0.7613343
000010 d2 64 bd bd f5 31 0c 3f 54 8d 16 3f 2e 35 0b be
       -0.092477456 0.5476373 0.588094 -0.13594505
000020 5a 4b b2 3e
       0.34823114

module.feature_extraction.block0.1.1.2.weight f4 [2, 1, 3, 3]
000000 6e 9c 95 3f 50 4c 04 3e 39 98 6d 3d e2 05 6e be
       1.1688364 0.12919736 0.0580065 -0.23244432
000010 7d 09 3c be 93 e6 b8 bd cc 13 0c bf 8e 17 bd be
       -0.18362994 -0.090283535 -0.5471771 -0.36932033
000020 e2 ad 20 3d 0f a1 77 bc 7f ce bc 3e 62 7a 5c be
       0.039228328 -0.015114083 0.36876294 -0.2153106
000030 fa a3 d7 bd e4 bf ad 3f 4a 98 d0 be b8 68 bb bd
       -0.10529323 1.3574185 -0.40741187 -0.09150833
000040 ff 11 1e be ad 64 11 3d
       -0.15436552 0.035496403

module.feature_extraction.block0.1.2.0.weight f4 [2]
000000 8a d5 39 3f e4 9f 04 3f
       0.7259146 0.51806474

module.feature_extraction.block0.1.2.0.bias f4 [2]
000000 31 69 0d 3e e5 ac 72 3f
       0.13809659 0.94795066

module.feature_extraction.block0.1.2.0.running_mean f4 [2]
000000 00 e0 e4 bc 3a 40 14 3f
       -0.027938843 0.579105

module.feature_extraction.block0.1.2.0.running_var f4 [2]
000000 e6 39 18 3d 90 78 9e 3d
       0.03716459 0.07737839

module.feature_extraction.block0.1.2.2.weight f4 [2, 2, 3, 3]
000000 20 7d 3e 3d 50 1e 0a be 16 1f 30 3e 3f fa 62 be
       0.046506047 -0.13488126 0.17199358 -0.22165774
000010 56 f4 93 be 9d 4d 84 bd 38 10 fd be 93 1d 37 bf
       -0.2889735 -0.06460116 -0.49426436 -0.715295
000020 51 a9 57 be 52 3c 48 3e 93 89 56 be 72 63 00 bf
       -0.21060683 0.1955426 -0.20950918 -0.5015174
000030 7f a8 4e bf 13 c3 ce bf 59 9c 14 bf 38 39 5f bd
       -0.80725855 -1.6153282 -0.5805107 -0.054497927
000040 61 60 33 be 2b c7 a4 bd 20 f4 4d bd f8 5a 02 3d
       -0.17517234 -0.08045801 -0.050281644 0.031825036
000050 19 03 a2 bd be 11 1c 3e 95 9c dd 3e b2 f3 21 3e
       -0.07910747 0.15241143 0.43283525 0.15815619
000060 b8 52 98 3e 46 92 58 3f 13 a9 ec 3e 9c 10 24 be
       0.2975061 0.84598196 0.46222743 -0.16021961
000070 bf d9 d5 bb 58 63 4e 3d 98 18 86 3f fc ee 31 3f
       -0.0065262015 0.05038771 1.0476255 0.69505286
000080 89 7c 97 3d 41 31 0a bf ce 78 8c be 3e 1d 43 bb
       0.073968 -0.53981405 -0.27435917 -0.0029772068

module.feature_extraction.blocks.0.1.0.weight f4 [2]
000000 a0 3a ba 3e ba 73 09 3f
       0.36372852 0.5369221

module.feature_extraction.blocks.0.1.0.bias f4 [2]
000000 7f db 89 3f 36 d8 68 3f
       1.077011 0.9095491

module.feature_extraction.blocks.0.1.0.running_mean f4 [2]
000000 62 bb 73 c0 56 14 e2 3f
       -3.808312 1.7662456

module.feature_extraction.blocks.0.1.0.running_var f4 [2]
000000 df f3 78 40 db e9 d0 3f
       3.8898847 1.6321367

module.feature_extraction.blocks.0.1.2.weight f4 [4, 2, 3, 3]
000000 ec 7f df 3d df 52 45 3e 6a d2 6a 3e 33 b9 56 3e
       0.10913071 0.19269894 0.22931829 0.20969085
000010 51 42 0f 3e bc a8 88 3e 09 b9 a8 be 8a 86 04 3f
       0.13990141 0.26691234 -0.3295367 0.5176779
000020 61 89 6a be 7b 33 22 be bf 8d 23 bd 5e f6 f6 bc
       -0.22903968 -0.1583995 -0.0399301 -0.030146774
000030 57 eb cb 3e 92 14 f9 3f 9c 9b d2 3d 6e e9 d6 bc
       0.39827988 1.9459403 0.102835864 -0.026234355
000040 a3 00 36 3e da 8d 86 3d 4b 48 9b 3e 7e f6 bd be
       0.1777368 0.06570025 0.30328593 -0.3710212
000050 d6 40 91 bd 94 d8 99 bf 0d f6 04 c0 33 f3 4d 3d
       -0.070924446 -1.2019219 -2.0775177 0.05028076
000060 ab dd c8 3e 1a be 3a be 60 72 94 bd c0 62 91 bd
       0.3923162 -0.1823658 -0.07248378 -0.07098913
000070 83 56 aa bc 5e b6 80 bd 71 24 f1 bc 22 01 1a 3e
       -0.020793205 -0.06284784 -0.029436322 0.15039495
000080 06 c1 0b bd a1 64 06 bd b7 90 51 bc 15 f0 b2 3c
       -0.03411963 -0.03281081 -0.01279085 0.021842996
000090 26 12 e3 3c b3 2b 19 be 6a 1f 91 3d 70 1a 9b 3e
       0.027718615 -0.14958076 0.0708607 0.30293608
0000a0 ac d7 96 3e 84 83 84 bd b2 83 c4 be 1f ef 20 bf
       0.2946142 -0.06470397 -0.38381726 -0.6286487
0000b0 48 1f 92 bc f0 7e 9c 3c d4 9c a0 bd ad 1d f8 3c
       -0.017837182 0.019103497 -0.078424126 0.030287588
0000c0 ac b8 5f be a8 f1 d5 bf ad 84 15 3d 74 19 30 bd
       -0.2184779 -1.6714373 0.036503483 -0.042993024
0000d0 c5 6f c1 bd 3e 4b d4 3b ef 29 b1 bd 87 7e bd bd
       -0.094451465 0.006478696 -0.08650576 -0.09252649
0000e0 55 bc 5d 3e b3 04 57 be af 5a 1d bf 80 cf 21 bf
       0.21653874 -0.20997886 -0.614665 -0.63207245
0000f0 d6 c2 f4 3d a4 ef 61 3f 8b 4e b1 3e e6 af 15 3d
       0.119512245 0.8825629 0.34630236 0.036544703
000100 7b eb 57 bd 86 f0 af bd eb 69 03 be 08 a8 14 3f
       -0.052714806 -0.08590798 -0.12833373 0.58068895
000110 2d 4e ce 3e 4d 67 cf bc d9 39 44 be bf 18 7d be
       0.40294018 -0.025317812 -0.19162692 -0.24716471

module.feature_extraction.blocks.0.2.0.weight f4 [4]
000000 06 e5 ee 3e fb c8 3e 3f 8e 9c bb 3f 93 1e 0d 3f
       0.46659106 0.7452542 1.4657152 0.5512478

module.feature_extraction.blocks.0.2.0.bias f4 [4]
000000 1e d5 a7 3e a6 e7 ad 3f 28 b3 c6 be f9 98 56 3e
       0.32779783 1.3586318 -0.3880856 0.20956792

module.feature_extraction.blocks.0.2.0.running_mean f4 [4]
000000 90 e5 59 40 f5 6c 63 c0 d7 f7 18 c0 49 51 27 3e
       3.4046364 -3.5535252 -2.390127 0.16339602

module.feature_extraction.blocks.0.2.0.running_var f4 [4]
000000 6c 6c a1 3f 13 6d a8 3f 96 8c 83 3f 30 c5 c2 3e
       1.2611213 1.3158287 1.0277278 0.38041067

module.feature_extraction.blocks.0.2.2.weight f4 [4, 4, 3, 3]
000000 25 64 df 3d 7a fd cf be f1 70 4b 3e d2 1b 59 be
       0.10907773 -0.40623075 0.19867302 -0.21202019
000010 a6 8c bb be dd 68 ed bd 83 ac 9d 3d a5 9a 5c bd
       -0.36630744 -0.11592267 0.076989196 -0.053858418
000020 2f d1 2b 3e 03 c4 ca 3d 33 75 c3 be 1f 8f f2 be
       0.16779016 0.099006675 -0.38175353 -0.47374818
000030 40 a9 b3 bd 35 7e 0d 3f 56 84 ec 3e a2 2c cc 3d
       -0.08772516 0.552707 0.46194714 0.099694505
000040 9f 47 5e 3e 7d 34 90 3d d6 2c 34 3f fd e5 a1 3f
       0.21707009 0.07041261 0.70380914 1.2648312
000050 e4 de 65 3f d3 e3 78 3d d2 eb 8e be ba 87 e3 bd
       0.8979323 0.060764145 -0.27914292 -0.11109872
000060 5d 7b 14 bc e7 be d1 bc ff 97 8c 3d 63 dd 8e bf
       -0.009062615 -0.025603725 0.068649285 -1.1161312
000070 f9 00 be bf fe 63 cf be 92 61 fc 3d 80 38 43 be
       -1.4844047 -0.40505975 0.123232976 -0.19064522
000080 97 f1 3a bd 82 2b b0 3d a3 0f 0c 3d fa 1a aa 3d
       -0.045640554 0.086020485 0.0341946 0.083059266
000090 75 b5 ea be b4 1f 2f bf 81 f8 9d be a0 0c f6 3b
       -0.45841566 -0.6840775 -0.30853656 0.0075088292
0000a0 a1 33 b5 be 91 5d e7 be 9f 05 7b 3d 69 dd 0f bd
       -0.35390952 -0.45188573 0.061284658 -0.035123263
0000b0 e8 f9 41 be 51 3b 52 3e c8 2f b9 3c 7f 64 5b 3d
       -0.18942988 0.2053044 0.022605792 0.053562637
0000c0 65 32 a0 ba 5a d1 d3 bf 42 b3 bd be 3b 7c 7a bd
       -0.001222205 -1.6548264 -0.37050825 -0.06115363
0000d0 86 df 90 bf bc 2f 4a be 0b 81 46 3e b4 d0 83 3e
       -1.1318214 -0.19744772 0.19385163 0.25745165
0000e0 7a 3c 00 3e 05 4d 7b 3e 62 8d 22 3f 22 28 8e 3e
       0.1252307 0.245411 0.63496983 0.27764994
0000f0 43 6d cd bc 16 b1 42 3b d8 8f 45 3c 96 70 c6 bd
       -0.025076514 0.0029707602 0.012058221 -0.09689443
000100 0b c2 14 be b2 04 0d 3e 71 61 c7 be 12 32 b3 be
       -0.14527147 0.13771322 -0.3894153 -0.34999138
000110 a6 69 cc bd a9 88 77 3e ba dd 50 3d a5 2d a3 bd
       -0.09981088 0.24173225 0.050992705 -0.079676904
000120 a6 a2 07 3e 03 d8 ad 3e 3e 67 57 3e 99 1e c4 be
       0.13245639 0.33953866 0.21035478 -0.38304594
000130 3b a6 63 bf 8b ff 7c be 27 48 0a be cc ba 49 bd
       -0.8892552 -0.24706857 -0.13504086 -0.04925041
000140 c0 c2 f7 3d 15 9f 3c bd 5d 04 fa 3e 22 3a 5d be
       0.120976925 -0.04605015 0.48831454 -0.21604207
000150 ae f7 6d 3e f9 45 c5 3f da 47 34 3f 5c f5 98 3e
       0.23239014 1.5411979 0.70422137 0.29874694
000160 5c 45 01 3f c4 82 0c 3e 23 64 2e be 4f ab 1f bf
       0.5049646 0.13721758 -0.17030387 -0.6237077
000170 5c e5 ba bd 61 d9 05 bf 80 2b 75 bf 79 fb 2d bf
       -0.09125778 -0.5228482 -0.957695 -0.6796184
000180 25 cf c9 3c ac d2 23 be b3 30 3e bd fc c8 ca bc
       0.024634907 -0.15998334 -0.046433162 -0.02475404
000190 5c b5 c3 be 09 f8 37 3a bf f1 97 3e cc e3 ab 3e
       -0.38224304 0.0007017856 0.29676625 0.33572233
0001a0 2f 48 00 3d 96 63 86 bc 34 10 01 3d e2 f1 6f 3d
       0.03131884 -0.016404908 0.031509593 0.058580287
0001b0 07 ac ae 3c d8 a1 4e 3f e9 6d 08 be 48 69 ac 3e
       0.021322263 0.80715704 -0.13323177 0.33674073
0001c0 5f fc ea 3e 57 22 ad 3e fd 7b 75 bd ad 91 34 bd
       0.4589567 0.33815262 -0.059932698 -0.04408424
0001d0 be c8 cd bd 16 38 aa bd 0b a1 94 3e 45 22 00 3f
       -0.10048054 -0.08311479 0.29029116 0.5005229
0001e0 40 71 08 3e 28 7a 95 bf 19 ca 47 bf 5a 54 97 bd
       0.13324451 -1.1677904 -0.7804275 -0.07389136
0001f0 a1 d1 ff be d2 2c 2b 3e 80 67 ed be ea 0f bd bf
       -0.49964622 0.16716316 -0.46368027 -1.4770482
000200 5e 17 19 bf 2a 78 fe 3d 9c 3a 9f 3e a4 4a 0f 3e
       -0.5980128 0.12425263 0.31099403 0.13993317
000210 3a 92 50 3d bd 8d 0a bd d5 67 af 3b c9 37 f2 3e
       0.050920703 -0.03382658 0.005352954 0.47308186
000220 e2 a1 07 3f c4 93 44 bd 8e 67 1b be 14 35 3f be
       0.5298139 -0.047992483 -0.15176222 -0.18672591
000230 85 eb 52 bc cd 01 b1 3d 18 d7 6c bd 74 d2 95 bc
       -0.012873535 0.086429216 -0.057822317 -0.018288828

module.feature_extraction.blocks.1.1.0.weight f4 [4]
000000 45 25 d0 3e 53 80 b9 3e f1 05 13 3f 95 fe fc 3e
       0.40653434 0.36230716 0.5743094 0.4941298

module.feature_extraction.blocks.1.1.0.bias f4 [4]
000000 14 9e 28 3f 84 fc 84 3f ee 45 99 3f 06 e0 90 3f
       0.6586621 1.0389562 1.1974466 1.1318367

module.feature_extraction.blocks.1.1.0.running_mean f4 [4]
000000 96 ce b4 3f 5c 9c 84 c0 65 50 95 40 99 b7 68 bf
       1.4125545 -4.144087 4.666064 -0.9090515

module.feature_extraction.blocks.1.1.0.running_var f4 [4]
000000 f3 ad 11 40 f6 9c d3 40 4a 75 fc 40 97 16 42 40
       2.276242 6.6129103 7.8893175 3.0326288

module.feature_extraction.blocks.1.1.2.weight f4 [8, 4, 3, 3]
000000 5e 2f 19 bd 40 cd 92 bd 3d c6 e8 bc 4f fb a5 bd
       -0.03739869 -0.071680546 -0.02841484 -0.08104574
000010 fd 21 62 3f 5c 8d 00 bc 97 53 3a 3d b1 33 05 3d
       0.8833311 -0.007846203 0.045489874 0.03252
000020 78 bf e6 3c 59 1f 8e b7 65 23 e0 3e 00 a1 c4 bd
       0.028167471 -1.6942317e-05 0.43777004 -0.09601021
000030 8d 46 93 3d f3 41 da bf 26 bc 4a 3e 31 1b 52 bd
       0.07191191 -1.7051376 0.19798335 -0.051295463
000040 8f 6b 8d be 74 d0 a3 3d a2 f7 26 be 4b 52 37 bf
       -0.27621123 0.07998744 -0.16305402 -0.71609944
000050 1e 9f f5 bc 2b 8c 98 be e3 14 b0 3f df 19 98 be
       -0.0299831 -0.2979444 1.3756374 -0.29707238
000060 a3 d8 0b bc 53 43 b9 3d 62 0e 0f bd 36 d3 ee bc
       -0.008535537 0.09046044 -0.034925826 -0.029153448
000070 78 08 56 3e fc 10 1f 3d 1e d1 fd 3d a9 58 13 bf
       0.20901668 0.038834557 0.123934016 -0.5755716
000080 d9 05 d5 3d 54 88 d6 3a d1 ac 7c bd 4a 85 45 bd
       0.10401506 0.0016367533 -0.061688248 -0.048222817
000090 41 63 a8 bc 3c 58 69 bd 75 ad 94 bd e0 96 06 3c
       -0.02055514 -0.056968912 -0.07259647 0.008214682
0000a0 2d aa 45 bf f8 d2 15 bb 31 ef bb bb 28 4e 8e bc
       -0.7721279 -0.0022861343 -0.005735301 -0.017371252
0000b0 be a5 be bd ad da 6c bc 13 3d 79 3e 4b 16 ca b8
       -0.093089566 -0.014456433 0.24339704 -9.636263e-05
0000c0 1d 1f 1b be b3 ff 8e 3e 9d a4 ca 3d 5f 8d d9 bd
       -0.15148588 0.27929458 0.09894679 -0.106226675
0000d0 0e 15 0b 3e 48 98 80 be f9 b4 d4 bd 59 a2 a7 bd
       0.1358225 -0.2511618 -0.1038608 -0.08185262
0000e0 c9 0f 58 be 9f a3 6a 3e 23 c1 03 bf 9b a1 55 3d
       -0.21099772 0.22913979 -0.5146658 0.052156072
0000f0 8e a8 01 bd 74 ac fb bb ec af e3 3d f5 b4 9b bc
       -0.031654887 -0.00768047 0.11117539 -0.019007185
000100 4b 44 e9 bc e4 b4 3c bd 9d e2 1b 3e cd 03 1f c0
       -0.028474947 -0.04607095 0.15223165 -2.484607
000110 02 7e 4d 3e 73 55 5f bb 56 72 9c be 63 29 1b 3e
       0.200676 -0.0034078031 -0.3055598 0.15152507
000120 b3 65 08 bd f2 e2 f5 bd f4 2c 05 be 5b 79 25 3e
       -0.033300113 -0.12006177 -0.1300543 0.16159575
000130 6a 1d e9 be ce 0a ab bc 7d 25 8d bd 52 7a 6e bd
       -0.45530254 -0.020879176 -0.06891916 -0.058222122
000140 fb ac 9a 3d 54 fc 87 be c4 48 0a 3f ce ce 62 3e
       0.07552525 -0.265597 0.5401728 0.22149202
000150 be 67 a4 3e e1 2b ee bf 19 da 35 be 45 23 67 bd
       0.321104 -1.8607141 -0.17758979 -0.05643012
000160 a6 8a ce bd e8 6c 84 3c 5f c6 04 3d da 9e 0b bf
       -0.10085039 0.016165212 0.032415744 -0.54539263
000170 6c 7b 83 be 9b 2d 39 be d8 d6 87 3f 17 54 2e 3e
       -0.256801 -0.18083803 1.061244 0.17024265
000180 ed dc a3 bc 9a 27 0b 3e 9a 26 4f bb ad 69 c6 bc
       -0.020002807 0.13589326 -0.0031608702 -0.024220312
000190 82 ac 9a 3c ec 5f 24 3d d9 32 4c be 80 24 a4 3f
       0.018881086 0.04013054 -0.19941272 1.2823639
0001a0 05 28 58 3e bb 25 60 bd f2 81 ae bd f9 52 40 3c
       0.21109016 -0.054723483 -0.08520879 0.011738532
0001b0 b6 39 8d bd 7a 5b 04 be 20 49 92 bc ef b3 46 be
       -0.06895773 -0.1292552 -0.017857134 -0.19404577
0001c0 6d d2 b4 bf b3 b7 32 be f3 b3 00 be 1f c7 2a 3d
       -1.4126717 -0.17452888 -0.12568645 0.041693803
0001d0 48 98 31 bd 3e af b8 3e 49 3e d2 be 56 61 9c 3d
       -0.043358117 0.360712 -0.41063145 0.07635753
0001e0 89 66 05 3e 66 4d 51 be 0c 79 75 be d3 88 50 3c
       0.13027395 -0.20439681 -0.23971957 0.012727934
0001f0 04 6a 8d 3b 8d a1 cc 3d d7 f0 07 3d 87 95 b5 3e
       0.0043156166 0.09991751 0.033188667 0.35465643
000200 48 44 42 3d cd 32 9f be 7d a5 87 bf a7 43 65 bd
       0.0474284 -0.31093445 -1.0597378 -0.05597272
000210 f3 cd c7 3c 37 e3 30 bd b4 c2 f5 3c 5c 26 d6 bd
       0.024390196 -0.04318544 0.030000068 -0.10456535
000220 8a a4 eb be 1c 7b 5a 3c cd c5 f1 be 4d 68 86 bf
       -0.4602397 0.013335016 -0.47221223 -1.050058
000230 29 ec 42 be 98 2c 7b 3c a3 f1 a8 be 0d 13 0f 3c
       -0.190354 0.015330456 -0.32996854 0.008732569
000240 33 1d 62 bb f0 64 9c bd dd e0 ca bd b1 a5 32 bf
       -0.0034502267 -0.0763644 -0.099061705 -0.69784075
000250 f5 34 fe bf d8 ed 32 3e af 44 6d bd 86 64 57 bd
       -1.9859911 0.17473543 -0.05792683 -0.0525861
000260 ab 02 da bc a3 22 c7 bd 88 ee cd be 4a 90 b1 bd
       -0.0266126 -0.09723403 -0.40221047 -0.08670099
000270 01 b5 96 3e 07 a5 d6 bd 6c 22 e0 3e ee 6c 16 3e
       0.2943497 -0.10480695 0.43776262 0.14689991
000280 09 ce 90 bd 73 21 cc bc 96 35 ba 3e 16 21 5d 3e
       -0.07070548 -0.024918294 0.36369008 0.21594653
000290 08 15 f8 3d 07 67 8f bd 30 3d cb be de 2a 04 be
       0.121133864 -0.07002073 -0.3969512 -0.12906978
0002a0 50 14 2d be 47 89 12 be 57 46 b8 bd c3 b5 14 bb
       -0.1690228 -0.1431018 -0.08997791 -0.0022691346
0002b0 b3 83 f0 be 77 c4 53 be f5 91 91 be ee 6e 6a be
       -0.4697548 -0.20680414 -0.2843167 -0.22893879
0002c0 06 cf 79 be e2 0b 07 be 1e 52 22 be 73 a2 50 3c
       -0.2439538 -0.13188127 -0.15851638 0.012734043
0002d0 e8 5d d8 3c 26 6a b1 bd f6 cb 82 bc 32 50 a3 3d
       0.026411965 -0.08662824 -0.015966397 0.079742804
0002e0 b5 59 87 bf a3 99 07 be 6c 10 94 3c 12 4b 9e 3d
       -1.0574251 -0.13242202 0.018074237 0.07729162
0002f0 27 16 b0 bb c8 a2 8e 3d 83 f5 f3 be 32 d1 07 3b
       -0.0053737345 0.06964642 -0.47648248 0.0020724055
000300 92 d6 0d be 72 69 60 3f bb e4 46 3e c8 06 e9 3d
       -0.13851383 0.87660897 0.19423191 0.113782465
000310 41 bd 86 bd e5 c5 5a 3d e8 84 82 3e 61 7d ea 3d
       -0.06579066 0.053411383 0.25492024 0.114496954
000320 fe 02 9c 3e 1c 0e ec 3d 59 92 e9 bf 63 5f ce be
       0.30471033 0.11526129 -1.8247787 -0.4030715
000330 21 c7 f5 bc 7c 76 16 bf 90 45 b6 bd 1a 4e 73 bc
       -0.030002179 -0.5877454 -0.08899987 -0.014850164
000340 6c 92 df bd 24 0e bb bd 2c 6a 49 be 07 ce 5c bc
       -0.109166 -0.091335565 -0.19669408 -0.013476855
000350 2a ba 16 be 4d ee 4d bd 2c f4 d1 be f0 58 7c bd
       -0.14719453 -0.05027609 -0.410066 -0.061608255
000360 33 61 4c bc 3a 5c 53 be b8 50 30 3c fc 09 5a 3e
       -0.012474346 -0.2064065 0.010761432 0.21292871
000370 bf 21 80 3d f2 3a 08 3d 8c ee da bd 87 fb e1 bd
       0.062564366 0.03325934 -0.106900305 -0.11034303
000380 91 69 4a bd 7b e4 11 be 52 15 5e be c4 97 fa bd
       -0.049417082 -0.14247315 -0.2168782 -0.12235978
000390 f5 a4 85 3d 6a 3c 92 3f b9 0f cc bc 8e 6c 2d be
       0.06525604 1.1424687 -0.02490984 -0.16935942
0003a0 02 a7 2e 3e 9a e6 25 be 79 3f 57 be 12 9b 70 bf
       0.17055896 -0.16201249 -0.21020307 -0.9398662
0003b0 72 54 f1 bd a5 a8 da 3d 63 a6 55 bf 64 60 8b 3e
       -0.11783685 0.10676698 -0.8345701 0.27221978
0003c0 1c 81 18 3e 3c 74 c3 be 5f 42 b3 3d b6 b6 a6 bd
       0.14893001 -0.38174617 0.08752894 -0.08140318
0003d0 e5 66 39 3e b3 b4 cc 3a 8d 03 41 be b2 c7 f2 3f
       0.18105657 0.0015617817 -0.18849011 1.8967192
0003e0 21 c0 74 be c9 3f b6 bd 84 2d de bd 1f 0f 22 bd
       -0.23901416 -0.08898885 -0.10848525 -0.0395652
0003f0 77 eb 67 bd aa 32 82 3e c3 c6 ee 3d 1a b4 56 bd
       -0.05662104 0.2542928 0.116590045 -0.052417852

module.feature_extraction.blocks.1.2.0.weight f4 [8]
000000 94 70 44 3f df 57 0a 3f e9 a5 25 3f 0f ad 5b 3f
       0.7673428 0.5404033 0.64706284 0.8581094
000010 df ce fa 3e 69 64 64 3f 34 90 58 3f 5c fd ea 3e
       0.48985955 0.89215714 0.84595037 0.45896423

module.feature_extraction.blocks.1.2.0.bias f4 [8]
000000 f4 98 b2 3f 1d 29 36 3f 5e 77 ba 3f 07 93 73 bf
       1.3952928 0.71156484 1.4567678 -0.9514622
000010 c4 bd d5 bd 33 73 29 bf 86 d7 62 3f ac 90 3b 3f
       -0.104365855 -0.66191405 0.8861011 0.73267627

module.feature_extraction.blocks.1.2.0.running_mean f4 [8]
000000 90 f6 9a bf 63 d8 71 c0 78 db 78 3c 17 be b4 c0
       -1.2106495 -3.7788322 0.015189044 -5.6482043
000010 c4 2f 81 c0 86 b9 76 c0 91 ce 2b be d9 7b 06 40
       -4.037081 -3.8550735 -0.16778018 2.101309

module.feature_extraction.blocks.1.2.0.running_var f4 [8]
000000 cd 3a 3b 3f f3 12 98 3f 07 b5 2a 3f b0 1b 93 3f
       0.731366 1.1880783 0.66682476 1.1492825
000010 cd ee b2 3f f9 8c 0f 40 c7 72 35 40 1d ec ba 3e
       1.3979126 2.2429793 2.8351305 0.36508265
